…
n","    layer.trainable = False # 기본모델의 레이어 동결(학습시 weight 최적화 안함, 역전파시 classification 부분만 weight 업데이트 됨)-> 모델 compile전에 실행\n","    \n","base_model.summary()"],"execution_count":7,"outputs":[{"output_type":"stream","text":["Model: \"inception_resnet_v1\"\n","__________________________________________________________________________________________________\n","Layer (type)                    Output Shape         Param #     Connected to                     \n","==================================================================================================\n","input_1 (InputLayer)            [(None, 224, 224, 3) 0                                            \n","__________________________________________________________________________________________________\n","Conv2d_1a_3x3 (Conv2D)          (None, 111, 111, 32) 864         input_1[0][0]                    \n","__________________________________________________________________________________________________\n","Conv2d_1a_3x3_BatchNorm (BatchN (None, 111, 111, 32) 96          Conv2d_1a_3x3[0][0]              \n","__________________________________________________________________________________________________\n","Conv2d_1a_3x3_Activation (Activ (None, 111, 111, 32) 0           Conv2d_1a_3x3_BatchNorm[0][0]    \n","__________________________________________________________________________________________________\n","Conv2d_2a_3x3 (Conv2D)          (None, 109, 109, 32) 9216        Conv2d_1a_3x3_Activation[0][0]   \n","__________________________________________________________________________________________________\n","Conv2d_2a_3x3_BatchNorm (BatchN (None, 109, 109, 32) 96          Conv2d_2a_3x3[0][0]              \n","__________________________________________________________________________________________________\n","Conv2d_2a_3x3_Activation (Activ (None, 109, 109, 32) 0           Conv2d_2a_3x3_BatchNorm[0][0]    \n","__________________________________________________________________________________________________\n","Conv2d_2b_3x3 (Conv2D)          (None, 109, 109, 64) 18432       Conv2d_2a_3x3_Activation[0][0]   \n","__________________________________________________________________________________________________\n","Conv2d_2b_3x3_BatchNorm (BatchN (None, 109, 109, 64) 192         Conv2d_2b_3x3[0][0]              \n","__________________________________________________________________________________________________\n","Conv2d_2b_3x3_Activation (Activ (None, 109, 109, 64) 0           Conv2d_2b_3x3_BatchNorm[0][0]    \n","__________________________________________________________________________________________________\n","MaxPool_3a_3x3 (MaxPooling2D)   (None, 54, 54, 64)   0           Conv2d_2b_3x3_Activation[0][0]   \n","__________________________________________________________________________________________________\n","Conv2d_3b_1x1 (Conv2D)          (None, 54, 54, 80)   5120        MaxPool_3a_3x3[0][0]             \n","__________________________________________________________________________________________________\n","Conv2d_3b_1x1_BatchNorm (BatchN (None, 54, 54, 80)   240         Conv2d_3b_1x1[0][0]              \n","__________________________________________________________________________________________________\n","Conv2d_3b_1x1_Activation (Activ (None, 54, 54, 80)   0           Conv2d_3b_1x1_BatchNorm[0][0]    \n","__________________________________________________________________________________________________\n","Conv2d_4a_3x3 (Conv2D)          (None, 52, 52, 192)  138240      Conv2d_3b_1x1_Activation[0][0]   \n","__________________________________________________________________________________________________\n","Conv2d_4a_3x3_BatchNorm (BatchN (None, 52, 52, 192)  576         Conv2d_4a_3x3[0][0]              \n","__________________________________________________________________________________________________\n","Conv2d_4a_3x3_Activation (Activ (None, 52, 52, 192)  0           Conv2d_4a_3x3_BatchNorm[0][0]    \n","__________________________________________________________________________________________________\n","Conv2d_4b_3x3 (Conv2D)          (None, 25, 25, 256)  442368      Conv2d_4a_3x3_Activation[0][0]   \n","__________________________________________________________________________________________________\n","Conv2d_4b_3x3_BatchNorm (BatchN (None, 25, 25, 256)  768         Conv2d_4b_3x3[0][0]              \n","__________________________________________________________________________________________________\n","Conv2d_4b_3x3_Activation (Activ (None, 25, 25, 256)  0           Conv2d_4b_3x3_BatchNorm[0][0]    \n","__________________________________________________________________________________________________\n","Block35_1_Branch_2_Conv2d_0a_1x (None, 25, 25, 32)   8192        Conv2d_4b_3x3_Activation[0][0]   \n","__________________________________________________________________________________________________\n","Block35_1_Branch_2_Conv2d_0a_1x (None, 25, 25, 32)   96          Block35_1_Branch_2_Conv2d_0a_1x1[\n","__________________________________________________________________________________________________\n","Block35_1_Branch_2_Conv2d_0a_1x (None, 25, 25, 32)   0           Block35_1_Branch_2_Conv2d_0a_1x1_\n","__________________________________________________________________________________________________\n","Block35_1_Branch_1_Conv2d_0a_1x (None, 25, 25, 32)   8192        Conv2d_4b_3x3_Activation[0][0]   \n","__________________________________________________________________________________________________\n","Block35_1_Branch_2_Conv2d_0b_3x (None, 25, 25, 32)   9216        Block35_1_Branch_2_Conv2d_0a_1x1_\n","__________________________________________________________________________________________________\n","Block35_1_Branch_1_Conv2d_0a_1x (None, 25, 25, 32)   96          Block35_1_Branch_1_Conv2d_0a_1x1[\n","__________________________________________________________________________________________________\n","Block35_1_Branch_2_Conv2d_0b_3x (None, 25, 25, 32)   96          Block35_1_Branch_2_Conv2d_0b_3x3[\n","__________________________________________________________________________________________________\n","Block35_1_Branch_1_Conv2d_0a_1x (None, 25, 25, 32)   0           Block35_1_Branch_1_Conv2d_0a_1x1_\n","__________________________________________________________________________________________________\n","Block35_1_Branch_2_Conv2d_0b_3x (None, 25, 25, 32)   0           Block35_1_Branch_2_Conv2d_0b_3x3_\n","__________________________________________________________________________________________________\n","Block35_1_Branch_0_Conv2d_1x1 ( (None, 25, 25, 32)   8192        Conv2d_4b_3x3_Activation[0][0]   \n","__________________________________________________________________________________________________\n","Block35_1_Branch_1_Conv2d_0b_3x (None, 25, 25, 32)   9216        Block35_1_Branch_1_Conv2d_0a_1x1_\n","__________________________________________________________________________________________________\n","Block35_1_Branch_2_Conv2d_0c_3x (None, 25, 25, 32)   9216        Block35_1_Branch_2_Conv2d_0b_3x3_\n","__________________________________________________________________________________________________\n","Block35_1_Branch_0_Conv2d_1x1_B (None, 25, 25, 32)   96          Block35_1_Branch_0_Conv2d_1x1[0][\n","__________________________________________________________________________________________________\n","Block35_1_Branch_1_Conv2d_0b_3x (None, 25, 25, 32)   96          Block35_1_Branch_1_Conv2d_0b_3x3[\n","__________________________________________________________________________________________________\n","Block35_1_Branch_2_Conv2d_0c_3x (None, 25, 25, 32)   96          Block35_1_Branch_2_Conv2d_0c_3x3[\n","__________________________________________________________________________________________________\n","Block35_1_Branch_0_Conv2d_1x1_A (None, 25, 25, 32)   0           Block35_1_Branch_0_Conv2d_1x1_Bat\n","__________________________________________________________________________________________________\n","Block35_1_Branch_1_Conv2d_0b_3x (None, 25, 25, 32)   0           Block35_1_Branch_1_Conv2d_0b_3x3_\n","__________________________________________________________________________________________________\n","Block35_1_Branch_2_Conv2d_0c_3x (None, 25, 25, 32)   0           Block35_1_Branch_2_Conv2d_0c_3x3_\n","__________________________________________________________________________________________________\n","Block35_1_Concatenate (Concaten (None, 25, 25, 96)   0           Block35_1_Branch_0_Conv2d_1x1_Act\n","                                                                 Block35_1_Branch_1_Conv2d_0b_3x3_\n","                                                                 Block35_1_Branch_2_Conv2d_0c_3x3_\n","__________________________________________________________________________________________________\n","Block35_1_Conv2d_1x1 (Conv2D)   (None, 25, 25, 256)  24832       Block35_1_Concatenate[0][0]      \n","__________________________________________________________________________________________________\n","lambda (Lambda)                 (None, 25, 25, 256)  0           Block35_1_Conv2d_1x1[0][0]       \n","__________________________________________________________________________________________________\n","add (Add)                       (None, 25, 25, 256)  0           Conv2d_4b_3x3_Activation[0][0]   \n","                                                                 lambda[0][0]                     \n","__________________________________________________________________________________________________\n","Block35_1_Activation (Activatio (None, 25, 25, 256)  0           add[0][0]                        \n","__________________________________________________________________________________________________\n","Block35_2_Branch_2_Conv2d_0a_1x (None, 25, 25, 32)   8192        Block35_1_Activation[0][0]       \n","__________________________________________________________________________________________________\n","Block35_2_Branch_2_Conv2d_0a_1x (None, 25, 25, 32)   96          Block35_2_Branch_2_Conv2d_0a_1x1[\n","__________________________________________________________________________________________________\n","Block35_2_Branch_2_Conv2d_0a_1x (None, 25, 25, 32)   0           Block35_2_Branch_2_Conv2d_0a_1x1_\n","__________________________________________________________________________________________________\n","Block35_2_Branch_1_Conv2d_0a_1x (None, 25, 25, 32)   8192        Block35_1_Activation[0][0]       \n","__________________________________________________________________________________________________\n","Block35_2_Branch_2_Conv2d_0b_3x (None, 25, 25, 32)   9216        Block35_2_Branch_2_Conv2d_0a_1x1_\n","__________________________________________________________________________________________________\n","Block35_2_Branch_1_Conv2d_0a_1x (None, 25, 25, 32)   96          Block35_2_Branch_1_Conv2d_0a_1x1[\n","__________________________________________________________________________________________________\n","Block35_2_Branch_2_Conv2d_0b_3x (None, 25, 25, 32)   96          Block35_2_Branch_2_Conv2d_0b_3x3[\n","__________________________________________________________________________________________________\n","Block35_2_Branch_1_Conv2d_0a_1x (None, 25, 25, 32)   0           Block35_2_Branch_1_Conv2d_0a_1x1_\n","__________________________________________________________________________________________________\n","Block35_2_Branch_2_Conv2d_0b_3x (None, 25, 25, 32)   0           Block35_2_Branch_2_Conv2d_0b_3x3_\n","__________________________________________________________________________________________________\n","Block35_2_Branch_0_Conv2d_1x1 ( (None, 25, 25, 32)   8192        Block35_1_Activation[0][0]       \n","__________________________________________________________________________________________________\n","Block35_2_Branch_1_Conv2d_0b_3x (None, 25, 25, 32)   9216        Block35_2_Branch_1_Conv2d_0a_1x1_\n","__________________________________________________________________________________________________\n","Block35_2_Branch_2_Conv2d_0c_3x (None, 25, 25, 32)   9216        Block35_2_Branch_2_Conv2d_0b_3x3_\n","__________________________________________________________________________________________________\n","Block35_2_Branch_0_Conv2d_1x1_B (None, 25, 25, 32)   96          Block35_2_Branch_0_Conv2d_1x1[0][\n","__________________________________________________________________________________________________\n","Block35_2_Branch_1_Conv2d_0b_3x (None, 25, 25, 32)   96          Block35_2_Branch_1_Conv2d_0b_3x3[\n","__________________________________________________________________________________________________\n","Block35_2_Branch_2_Conv2d_0c_3x (None, 25, 25, 32)   96          Block35_2_Branch_2_Conv2d_0c_3x3[\n","__________________________________________________________________________________________________\n","Block35_2_Branch_0_Conv2d_1x1_A (None, 25, 25, 32)   0           Block35_2_Branch_0_Conv2d_1x1_Bat\n","__________________________________________________________________________________________________\n","Block35_2_Branch_1_Conv2d_0b_3x (None, 25, 25, 32)   0           Block35_2_Branch_1_Conv2d_0b_3x3_\n","__________________________________________________________________________________________________\n","Block35_2_Branch_2_Conv2d_0c_3x (None, 25, 25, 32)   0           Block35_2_Branch_2_Conv2d_0c_3x3_\n","__________________________________________________________________________________________________\n","Block35_2_Concatenate (Concaten (None, 25, 25, 96)   0           Block35_2_Branch_0_Conv2d_1x1_Act\n","                                                                 Block35_2_Branch_1_Conv2d_0b_3x3_\n","                                                                 Block35_2_Branch_2_Conv2d_0c_3x3_\n","__________________________________________________________________________________________________\n","Block35_2_Conv2d_1x1 (Conv2D)   (None, 25, 25, 256)  24832       Block35_2_Concatenate[0][0]      \n","__________________________________________________________________________________________________\n","lambda_1 (Lambda)               (None, 25, 25, 256)  0           Block35_2_Conv2d_1x1[0][0]       \n","__________________________________________________________________________________________________\n","add_1 (Add)                     (None, 25, 25, 256)  0           Block35_1_Activation[0][0]       \n","                                                                 lambda_1[0][0]                   \n","__________________________________________________________________________________________________\n","Block35_2_Activation (Activatio (None, 25, 25, 256)  0           add_1[0][0]                      \n","__________________________________________________________________________________________________\n","Block35_3_Branch_2_Conv2d_0a_1x (None, 25, 25, 32)   8192        Block35_2_Activation[0][0]       \n","__________________________________________________________________________________________________\n","Block35_3_Branch_2_Conv2d_0a_1x (None, 25, 25, 32)   96          Block35_3_Branch_2_Conv2d_0a_1x1[\n","__________________________________________________________________________________________________\n","Block35_3_Branch_2_Conv2d_0a_1x (None, 25, 25, 32)   0           Block35_3_Branch_2_Conv2d_0a_1x1_\n","__________________________________________________________________________________________________\n","Block35_3_Branch_1_Conv2d_0a_1x (None, 25, 25, 32)   8192        Block35_2_Activation[0][0]       \n","__________________________________________________________________________________________________\n","Block35_3_Branch_2_Conv2d_0b_3x (None, 25, 25, 32)   9216        Block35_3_Branch_2_Conv2d_0a_1x1_\n","__________________________________________________________________________________________________\n","Block35_3_Branch_1_Conv2d_0a_1x (None, 25, 25, 32)   96          Block35_3_Branch_1_Conv2d_0a_1x1[\n","__________________________________________________________________________________________________\n","Block35_3_Branch_2_Conv2d_0b_3x (None, 25, 25, 32)   96          Block35_3_Branch_2_Conv2d_0b_3x3[\n","__________________________________________________________________________________________________\n","Block35_3_Branch_1_Conv2d_0a_1x (None, 25, 25, 32)   0           Block35_3_Branch_1_Conv2d_0a_1x1_\n","__________________________________________________________________________________________________\n","Block35_3_Branch_2_Conv2d_0b_3x (None, 25, 25, 32)   0           Block35_3_Branch_2_Conv2d_0b_3x3_\n","__________________________________________________________________________________________________\n","Block35_3_Branch_0_Conv2d_1x1 ( (None, 25, 25, 32)   8192        Block35_2_Activation[0][0]       \n","__________________________________________________________________________________________________\n","Block35_3_Branch_1_Conv2d_0b_3x (None, 25, 25, 32)   9216        Block35_3_Branch_1_Conv2d_0a_1x1_\n","__________________________________________________________________________________________________\n","Block35_3_Branch_2_Conv2d_0c_3x (None, 25, 25, 32)   9216        Block35_3_Branch_2_Conv2d_0b_3x3_\n","__________________________________________________________________________________________________\n","Block35_3_Branch_0_Conv2d_1x1_B (None, 25, 25, 32)   96          Block35_3_Branch_0_Conv2d_1x1[0][\n","__________________________________________________________________________________________________\n","Block35_3_Branch_1_Conv2d_0b_3x (None, 25, 25, 32)   96          Block35_3_Branch_1_Conv2d_0b_3x3[\n","__________________________________________________________________________________________________\n","Block35_3_Branch_2_Conv2d_0c_3x (None, 25, 25, 32)   96          Block35_3_Branch_2_Conv2d_0c_3x3[\n","__________________________________________________________________________________________________\n","Block35_3_Branch_0_Conv2d_1x1_A (None, 25, 25, 32)   0           Block35_3_Branch_0_Conv2d_1x1_Bat\n","__________________________________________________________________________________________________\n","Block35_3_Branch_1_Conv2d_0b_3x (None, 25, 25, 32)   0           Block35_3_Branch_1_Conv2d_0b_3x3_\n","__________________________________________________________________________________________________\n","Block35_3_Branch_2_Conv2d_0c_3x (None, 25, 25, 32)   0           Block35_3_Branch_2_Conv2d_0c_3x3_\n","__________________________________________________________________________________________________\n","Block35_3_Concatenate (Concaten (None, 25, 25, 96)   0           Block35_3_Branch_0_Conv2d_1x1_Act\n","                                                                 Block35_3_Branch_1_Conv2d_0b_3x3_\n","                                                                 Block35_3_Branch_2_Conv2d_0c_3x3_\n","__________________________________________________________________________________________________\n","Block35_3_Conv2d_1x1 (Conv2D)   (None, 25, 25, 256)  24832       Block35_3_Concatenate[0][0]      \n","__________________________________________________________________________________________________\n","lambda_2 (Lambda)               (None, 25, 25, 256)  0           Block35_3_Conv2d_1x1[0][0]       \n","__________________________________________________________________________________________________\n","add_2 (Add)                     (None, 25, 25, 256)  0           Block35_2_Activation[0][0]       \n","                                                                 lambda_2[0][0]                   \n","__________________________________________________________________________________________________\n","Block35_3_Activation (Activatio (None, 25, 25, 256)  0           add_2[0][0]                      \n","__________________________________________________________________________________________________\n","Block35_4_Branch_2_Conv2d_0a_1x (None, 25, 25, 32)   8192        Block35_3_Activation[0][0]       \n","__________________________________________________________________________________________________\n","Block35_4_Branch_2_Conv2d_0a_1x (None, 25, 25, 32)   96          Block35_4_Branch_2_Conv2d_0a_1x1[\n","__________________________________________________________________________________________________\n","Block35_4_Branch_2_Conv2d_0a_1x (None, 25, 25, 32)   0           Block35_4_Branch_2_Conv2d_0a_1x1_\n","__________________________________________________________________________________________________\n","Block35_4_Branch_1_Conv2d_0a_1x (None, 25, 25, 32)   8192        Block35_3_Activation[0][0]       \n","__________________________________________________________________________________________________\n","Block35_4_Branch_2_Conv2d_0b_3x (None, 25, 25, 32)   9216        Block35_4_Branch_2_Conv2d_0a_1x1_\n","__________________________________________________________________________________________________\n","Block35_4_Branch_1_Conv2d_0a_1x (None, 25, 25, 32)   96          Block35_4_Branch_1_Conv2d_0a_1x1[\n","__________________________________________________________________________________________________\n","Block35_4_Branch_2_Conv2d_0b_3x (None, 25, 25, 32)   96          Block35_4_Branch_2_Conv2d_0b_3x3[\n","__________________________________________________________________________________________________\n","Block35_4_Branch_1_Conv2d_0a_1x (None, 25, 25, 32)   0           Block35_4_Branch_1_Conv2d_0a_1x1_\n","__________________________________________________________________________________________________\n","Block35_4_Branch_2_Conv2d_0b_3x (None, 25, 25, 32)   0           Block35_4_Branch_2_Conv2d_0b_3x3_\n","__________________________________________________________________________________________________\n","Block35_4_Branch_0_Conv2d_1x1 ( (None, 25, 25, 32)   8192        Block35_3_Activation[0][0]       \n","__________________________________________________________________________________________________\n","Block35_4_Branch_1_Conv2d_0b_3x (None, 25, 25, 32)   9216        Block35_4_Branch_1_Conv2d_0a_1x1_\n","__________________________________________________________________________________________________\n","Block35_4_Branch_2_Conv2d_0c_3x (None, 25, 25, 32)   9216        Block35_4_Branch_2_Conv2d_0b_3x3_\n","__________________________________________________________________________________________________\n","Block35_4_Branch_0_Conv2d_1x1_B (None, 25, 25, 32)   96          Block35_4_Branch_0_Conv2d_1x1[0][\n","__________________________________________________________________________________________________\n","Block35_4_Branch_1_Conv2d_0b_3x (None, 25, 25, 32)   96          Block35_4_Branch_1_Conv2d_0b_3x3[\n","__________________________________________________________________________________________________\n","Block35_4_Branch_2_Conv2d_0c_3x (None, 25, 25, 32)   96          Block35_4_Branch_2_Conv2d_0c_3x3[\n","__________________________________________________________________________________________________\n","Block35_4_Branch_0_Conv2d_1x1_A (None, 25, 25, 32)   0           Block35_4_Branch_0_Conv2d_1x1_Bat\n","__________________________________________________________________________________________________\n","Block35_4_Branch_1_Conv2d_0b_3x (None, 25, 25, 32)   0           Block35_4_Branch_1_Conv2d_0b_3x3_\n","__________________________________________________________________________________________________\n","Block35_4_Branch_2_Conv2d_0c_3x (None, 25, 25, 32)   0           Block35_4_Branch_2_Conv2d_0c_3x3_\n","__________________________________________________________________________________________________\n","Block35_4_Concatenate (Concaten (None, 25, 25, 96)   0           Block35_4_Branch_0_Conv2d_1x1_Act\n","                                                                 Block35_4_Branch_1_Conv2d_0b_3x3_\n","                                                                 Block35_4_Branch_2_Conv2d_0c_3x3_\n","__________________________________________________________________________________________________\n","Block35_4_Conv2d_1x1 (Conv2D)   (None, 25, 25, 256)  24832       Block35_4_Concatenate[0][0]      \n","__________________________________________________________________________________________________\n","lambda_3 (Lambda)               (None, 25, 25, 256)  0           Block35_4_Conv2d_1x1[0][0]       \n","__________________________________________________________________________________________________\n","add_3 (Add)                     (None, 25, 25, 256)  0           Block35_3_Activation[0][0]       \n","                                                                 lambda_3[0][0]                   \n","__________________________________________________________________________________________________\n","Block35_4_Activation (Activatio (None, 25, 25, 256)  0           add_3[0][0]                      \n","__________________________________________________________________________________________________\n","Block35_5_Branch_2_Conv2d_0a_1x (None, 25, 25, 32)   8192        Block35_4_Activation[0][0]       \n","__________________________________________________________________________________________________\n","Block35_5_Branch_2_Conv2d_0a_1x (None, 25, 25, 32)   96          Block35_5_Branch_2_Conv2d_0a_1x1[\n","__________________________________________________________________________________________________\n","Block35_5_Branch_2_Conv2d_0a_1x (None, 25, 25, 32)   0           Block35_5_Branch_2_Conv2d_0a_1x1_\n","__________________________________________________________________________________________________\n","Block35_5_Branch_1_Conv2d_0a_1x (None, 25, 25, 32)   8192        Block35_4_Activation[0][0]       \n","__________________________________________________________________________________________________\n","Block35_5_Branch_2_Conv2d_0b_3x (None, 25, 25, 32)   9216        Block35_5_Branch_2_Conv2d_0a_1x1_\n","__________________________________________________________________________________________________\n","Block35_5_Branch_1_Conv2d_0a_1x (None, 25, 25, 32)   96          Block35_5_Branch_1_Conv2d_0a_1x1[\n","__________________________________________________________________________________________________\n","Block35_5_Branch_2_Conv2d_0b_3x (None, 25, 25, 32)   96          Block35_5_Branch_2_Conv2d_0b_3x3[\n","__________________________________________________________________________________________________\n","Block35_5_Branch_1_Conv2d_0a_1x (None, 25, 25, 32)   0           Block35_5_Branch_1_Conv2d_0a_1x1_\n","__________________________________________________________________________________________________\n","Block35_5_Branch_2_Conv2d_0b_3x (None, 25, 25, 32)   0           Block35_5_Branch_2_Conv2d_0b_3x3_\n","__________________________________________________________________________________________________\n","Block35_5_Branch_0_Conv2d_1x1 ( (None, 25, 25, 32)   8192        Block35_4_Activation[0][0]       \n","__________________________________________________________________________________________________\n","Block35_5_Branch_1_Conv2d_0b_3x (None, 25, 25, 32)   9216        Block35_5_Branch_1_Conv2d_0a_1x1_\n","__________________________________________________________________________________________________\n","Block35_5_Branch_2_Conv2d_0c_3x (None, 25, 25, 32)   9216        Block35_5_Branch_2_Conv2d_0b_3x3_\n","__________________________________________________________________________________________________\n","Block35_5_Branch_0_Conv2d_1x1_B (None, 25, 25, 32)   96          Block35_5_Branch_0_Conv2d_1x1[0][\n","__________________________________________________________________________________________________\n","Block35_5_Branch_1_Conv2d_0b_3x (None, 25, 25, 32)   96          Block35_5_Branch_1_Conv2d_0b_3x3[\n","__________________________________________________________________________________________________\n","Block35_5_Branch_2_Conv2d_0c_3x (None, 25, 25, 32)   96          Block35_5_Branch_2_Conv2d_0c_3x3[\n","__________________________________________________________________________________________________\n","Block35_5_Branch_0_Conv2d_1x1_A (None, 25, 25, 32)   0           Block35_5_Branch_0_Conv2d_1x1_Bat\n","__________________________________________________________________________________________________\n","Block35_5_Branch_1_Conv2d_0b_3x (None, 25, 25, 32)   0           Block35_5_Branch_1_Conv2d_0b_3x3_\n","__________________________________________________________________________________________________\n","Block35_5_Branch_2_Conv2d_0c_3x (None, 25, 25, 32)   0           Block35_5_Branch_2_Conv2d_0c_3x3_\n","__________________________________________________________________________________________________\n","Block35_5_Concatenate (Concaten (None, 25, 25, 96)   0           Block35_5_Branch_0_Conv2d_1x1_Act\n","                                                                 Block35_5_Branch_1_Conv2d_0b_3x3_\n","                                                                 Block35_5_Branch_2_Conv2d_0c_3x3_\n","__________________________________________________________________________________________________\n","Block35_5_Conv2d_1x1 (Conv2D)   (None, 25, 25, 256)  24832       Block35_5_Concatenate[0][0]      \n","__________________________________________________________________________________________________\n","lambda_4 (Lambda)               (None, 25, 25, 256)  0           Block35_5_Conv2d_1x1[0][0]       \n","__________________________________________________________________________________________________\n","add_4 (Add)                     (None, 25, 25, 256)  0           Block35_4_Activation[0][0]       \n","                                                                 lambda_4[0][0]                   \n","__________________________________________________________________________________________________\n","Block35_5_Activation (Activatio (None, 25, 25, 256)  0           add_4[0][0]                      \n","__________________________________________________________________________________________________\n","Mixed_6a_Branch_1_Conv2d_0a_1x1 (None, 25, 25, 192)  49152       Block35_5_Activation[0][0]       \n","__________________________________________________________________________________________________\n","Mixed_6a_Branch_1_Conv2d_0a_1x1 (None, 25, 25, 192)  576         Mixed_6a_Branch_1_Conv2d_0a_1x1[0\n","__________________________________________________________________________________________________\n","Mixed_6a_Branch_1_Conv2d_0a_1x1 (None, 25, 25, 192)  0           Mixed_6a_Branch_1_Conv2d_0a_1x1_B\n","__________________________________________________________________________________________________\n","Mixed_6a_Branch_1_Conv2d_0b_3x3 (None, 25, 25, 192)  331776      Mixed_6a_Branch_1_Conv2d_0a_1x1_A\n","__________________________________________________________________________________________________\n","Mixed_6a_Branch_1_Conv2d_0b_3x3 (None, 25, 25, 192)  576         Mixed_6a_Branch_1_Conv2d_0b_3x3[0\n","__________________________________________________________________________________________________\n","Mixed_6a_Branch_1_Conv2d_0b_3x3 (None, 25, 25, 192)  0           Mixed_6a_Branch_1_Conv2d_0b_3x3_B\n","__________________________________________________________________________________________________\n","Mixed_6a_Branch_0_Conv2d_1a_3x3 (None, 12, 12, 384)  884736      Block35_5_Activation[0][0]       \n","__________________________________________________________________________________________________\n","Mixed_6a_Branch_1_Conv2d_1a_3x3 (None, 12, 12, 256)  442368      Mixed_6a_Branch_1_Conv2d_0b_3x3_A\n","__________________________________________________________________________________________________\n","Mixed_6a_Branch_0_Conv2d_1a_3x3 (None, 12, 12, 384)  1152        Mixed_6a_Branch_0_Conv2d_1a_3x3[0\n","__________________________________________________________________________________________________\n","Mixed_6a_Branch_1_Conv2d_1a_3x3 (None, 12, 12, 256)  768         Mixed_6a_Branch_1_Conv2d_1a_3x3[0\n","__________________________________________________________________________________________________\n","Mixed_6a_Branch_0_Conv2d_1a_3x3 (None, 12, 12, 384)  0           Mixed_6a_Branch_0_Conv2d_1a_3x3_B\n","__________________________________________________________________________________________________\n","Mixed_6a_Branch_1_Conv2d_1a_3x3 (None, 12, 12, 256)  0           Mixed_6a_Branch_1_Conv2d_1a_3x3_B\n","__________________________________________________________________________________________________\n","Mixed_6a_Branch_2_MaxPool_1a_3x (None, 12, 12, 256)  0           Block35_5_Activation[0][0]       \n","__________________________________________________________________________________________________\n","Mixed_6a (Concatenate)          (None, 12, 12, 896)  0           Mixed_6a_Branch_0_Conv2d_1a_3x3_A\n","                                                                 Mixed_6a_Branch_1_Conv2d_1a_3x3_A\n","                                                                 Mixed_6a_Branch_2_MaxPool_1a_3x3[\n","__________________________________________________________________________________________________\n","Block17_1_Branch_1_Conv2d_0a_1x (None, 12, 12, 128)  114688      Mixed_6a[0][0]                   \n","__________________________________________________________________________________________________\n","Block17_1_Branch_1_Conv2d_0a_1x (None, 12, 12, 128)  384         Block17_1_Branch_1_Conv2d_0a_1x1[\n","__________________________________________________________________________________________________\n","Block17_1_Branch_1_Conv2d_0a_1x (None, 12, 12, 128)  0           Block17_1_Branch_1_Conv2d_0a_1x1_\n","__________________________________________________________________________________________________\n","Block17_1_Branch_1_Conv2d_0b_1x (None, 12, 12, 128)  114688      Block17_1_Branch_1_Conv2d_0a_1x1_\n","__________________________________________________________________________________________________\n","Block17_1_Branch_1_Conv2d_0b_1x (None, 12, 12, 128)  384         Block17_1_Branch_1_Conv2d_0b_1x7[\n","__________________________________________________________________________________________________\n","Block17_1_Branch_1_Conv2d_0b_1x (None, 12, 12, 128)  0           Block17_1_Branch_1_Conv2d_0b_1x7_\n","__________________________________________________________________________________________________\n","Block17_1_Branch_0_Conv2d_1x1 ( (None, 12, 12, 128)  114688      Mixed_6a[0][0]                   \n","__________________________________________________________________________________________________\n","Block17_1_Branch_1_Conv2d_0c_7x (None, 12, 12, 128)  114688      Block17_1_Branch_1_Conv2d_0b_1x7_\n","__________________________________________________________________________________________________\n","Block17_1_Branch_0_Conv2d_1x1_B (None, 12, 12, 128)  384         Block17_1_Branch_0_Conv2d_1x1[0][\n","__________________________________________________________________________________________________\n","Block17_1_Branch_1_Conv2d_0c_7x (None, 12, 12, 128)  384         Block17_1_Branch_1_Conv2d_0c_7x1[\n","__________________________________________________________________________________________________\n","Block17_1_Branch_0_Conv2d_1x1_A (None, 12, 12, 128)  0           Block17_1_Branch_0_Conv2d_1x1_Bat\n","__________________________________________________________________________________________________\n","Block17_1_Branch_1_Conv2d_0c_7x (None, 12, 12, 128)  0           Block17_1_Branch_1_Conv2d_0c_7x1_\n","__________________________________________________________________________________________________\n","Block17_1_Concatenate (Concaten (None, 12, 12, 256)  0           Block17_1_Branch_0_Conv2d_1x1_Act\n","                                                                 Block17_1_Branch_1_Conv2d_0c_7x1_\n","__________________________________________________________________________________________________\n","Block17_1_Conv2d_1x1 (Conv2D)   (None, 12, 12, 896)  230272      Block17_1_Concatenate[0][0]      \n","__________________________________________________________________________________________________\n","lambda_5 (Lambda)               (None, 12, 12, 896)  0           Block17_1_Conv2d_1x1[0][0]       \n","__________________________________________________________________________________________________\n","add_5 (Add)                     (None, 12, 12, 896)  0           Mixed_6a[0][0]                   \n","                                                                 lambda_5[0][0]                   \n","__________________________________________________________________________________________________\n","Block17_1_Activation (Activatio (None, 12, 12, 896)  0           add_5[0][0]                      \n","__________________________________________________________________________________________________\n","Block17_2_Branch_1_Conv2d_0a_1x (None, 12, 12, 128)  114688      Block17_1_Activation[0][0]       \n","__________________________________________________________________________________________________\n","Block17_2_Branch_1_Conv2d_0a_1x (None, 12, 12, 128)  384         Block17_2_Branch_1_Conv2d_0a_1x1[\n","__________________________________________________________________________________________________\n","Block17_2_Branch_1_Conv2d_0a_1x (None, 12, 12, 128)  0           Block17_2_Branch_1_Conv2d_0a_1x1_\n","__________________________________________________________________________________________________\n","Block17_2_Branch_1_Conv2d_0b_1x (None, 12, 12, 128)  114688      Block17_2_Branch_1_Conv2d_0a_1x1_\n","__________________________________________________________________________________________________\n","Block17_2_Branch_1_Conv2d_0b_1x (None, 12, 12, 128)  384         Block17_2_Branch_1_Conv2d_0b_1x7[\n","__________________________________________________________________________________________________\n","Block17_2_Branch_1_Conv2d_0b_1x (None, 12, 12, 128)  0           Block17_2_Branch_1_Conv2d_0b_1x7_\n","__________________________________________________________________________________________________\n","Block17_2_Branch_0_Conv2d_1x1 ( (None, 12, 12, 128)  114688      Block17_1_Activation[0][0]       \n","__________________________________________________________________________________________________\n","Block17_2_Branch_1_Conv2d_0c_7x (None, 12, 12, 128)  114688      Block17_2_Branch_1_Conv2d_0b_1x7_\n","__________________________________________________________________________________________________\n","Block17_2_Branch_0_Conv2d_1x1_B (None, 12, 12, 128)  384         Block17_2_Branch_0_Conv2d_1x1[0][\n","__________________________________________________________________________________________________\n","Block17_2_Branch_1_Conv2d_0c_7x (None, 12, 12, 128)  384         Block17_2_Branch_1_Conv2d_0c_7x1[\n","__________________________________________________________________________________________________\n","Block17_2_Branch_0_Conv2d_1x1_A (None, 12, 12, 128)  0           Block17_2_Branch_0_Conv2d_1x1_Bat\n","__________________________________________________________________________________________________\n","Block17_2_Branch_1_Conv2d_0c_7x (None, 12, 12, 128)  0           Block17_2_Branch_1_Conv2d_0c_7x1_\n","__________________________________________________________________________________________________\n","Block17_2_Concatenate (Concaten (None, 12, 12, 256)  0           Block17_2_Branch_0_Conv2d_1x1_Act\n","                                                                 Block17_2_Branch_1_Conv2d_0c_7x1_\n","__________________________________________________________________________________________________\n","Block17_2_Conv2d_1x1 (Conv2D)   (None, 12, 12, 896)  230272      Block17_2_Concatenate[0][0]      \n","__________________________________________________________________________________________________\n","lambda_6 (Lambda)               (None, 12, 12, 896)  0           Block17_2_Conv2d_1x1[0][0]       \n","__________________________________________________________________________________________________\n","add_6 (Add)                     (None, 12, 12, 896)  0           Block17_1_Activation[0][0]       \n","                                                                 lambda_6[0][0]                   \n","__________________________________________________________________________________________________\n","Block17_2_Activation (Activatio (None, 12, 12, 896)  0           add_6[0][0]                      \n","__________________________________________________________________________________________________\n","Block17_3_Branch_1_Conv2d_0a_1x (None, 12, 12, 128)  114688      Block17_2_Activation[0][0]       \n","__________________________________________________________________________________________________\n","Block17_3_Branch_1_Conv2d_0a_1x (None, 12, 12, 128)  384         Block17_3_Branch_1_Conv2d_0a_1x1[\n","__________________________________________________________________________________________________\n","Block17_3_Branch_1_Conv2d_0a_1x (None, 12, 12, 128)  0           Block17_3_Branch_1_Conv2d_0a_1x1_\n","__________________________________________________________________________________________________\n","Block17_3_Branch_1_Conv2d_0b_1x (None, 12, 12, 128)  114688      Block17_3_Branch_1_Conv2d_0a_1x1_\n","__________________________________________________________________________________________________\n","Block17_3_Branch_1_Conv2d_0b_1x (None, 12, 12, 128)  384         Block17_3_Branch_1_Conv2d_0b_1x7[\n","__________________________________________________________________________________________________\n","Block17_3_Branch_1_Conv2d_0b_1x (None, 12, 12, 128)  0           Block17_3_Branch_1_Conv2d_0b_1x7_\n","__________________________________________________________________________________________________\n","Block17_3_Branch_0_Conv2d_1x1 ( (None, 12, 12, 128)  114688      Block17_2_Activation[0][0]       \n","__________________________________________________________________________________________________\n","Block17_3_Branch_1_Conv2d_0c_7x (None, 12, 12, 128)  114688      Block17_3_Branch_1_Conv2d_0b_1x7_\n","__________________________________________________________________________________________________\n","Block17_3_Branch_0_Conv2d_1x1_B (None, 12, 12, 128)  384         Block17_3_Branch_0_Conv2d_1x1[0][\n","__________________________________________________________________________________________________\n","Block17_3_Branch_1_Conv2d_0c_7x (None, 12, 12, 128)  384         Block17_3_Branch_1_Conv2d_0c_7x1[\n","__________________________________________________________________________________________________\n","Block17_3_Branch_0_Conv2d_1x1_A (None, 12, 12, 128)  0           Block17_3_Branch_0_Conv2d_1x1_Bat\n","__________________________________________________________________________________________________\n","Block17_3_Branch_1_Conv2d_0c_7x (None, 12, 12, 128)  0           Block17_3_Branch_1_Conv2d_0c_7x1_\n","__________________________________________________________________________________________________\n","Block17_3_Concatenate (Concaten (None, 12, 12, 256)  0           Block17_3_Branch_0_Conv2d_1x1_Act\n","                                                                 Block17_3_Branch_1_Conv2d_0c_7x1_\n","__________________________________________________________________________________________________\n","Block17_3_Conv2d_1x1 (Conv2D)   (None, 12, 12, 896)  230272      Block17_3_Concatenate[0][0]      \n","__________________________________________________________________________________________________\n","lambda_7 (Lambda)               (None, 12, 12, 896)  0           Block17_3_Conv2d_1x1[0][0]       \n","__________________________________________________________________________________________________\n","add_7 (Add)                     (None, 12, 12, 896)  0           Block17_2_Activation[0][0]       \n","                                                                 lambda_7[0][0]                   \n","__________________________________________________________________________________________________\n","Block17_3_Activation (Activatio (None, 12, 12, 896)  0           add_7[0][0]                      \n","__________________________________________________________________________________________________\n","Block17_4_Branch_1_Conv2d_0a_1x (None, 12, 12, 128)  114688      Block17_3_Activation[0][0]       \n","__________________________________________________________________________________________________\n","Block17_4_Branch_1_Conv2d_0a_1x (None, 12, 12, 128)  384         Block17_4_Branch_1_Conv2d_0a_1x1[\n","__________________________________________________________________________________________________\n","Block17_4_Branch_1_Conv2d_0a_1x (None, 12, 12, 128)  0           Block17_4_Branch_1_Conv2d_0a_1x1_\n","__________________________________________________________________________________________________\n","Block17_4_Branch_1_Conv2d_0b_1x (None, 12, 12, 128)  114688      Block17_4_Branch_1_Conv2d_0a_1x1_\n","__________________________________________________________________________________________________\n","Block17_4_Branch_1_Conv2d_0b_1x (None, 12, 12, 128)  384         Block17_4_Branch_1_Conv2d_0b_1x7[\n","__________________________________________________________________________________________________\n","Block17_4_Branch_1_Conv2d_0b_1x (None, 12, 12, 128)  0           Block17_4_Branch_1_Conv2d_0b_1x7_\n","__________________________________________________________________________________________________\n","Block17_4_Branch_0_Conv2d_1x1 ( (None, 12, 12, 128)  114688      Block17_3_Activation[0][0]       \n","__________________________________________________________________________________________________\n","Block17_4_Branch_1_Conv2d_0c_7x (None, 12, 12, 128)  114688      Block17_4_Branch_1_Conv2d_0b_1x7_\n","__________________________________________________________________________________________________\n","Block17_4_Branch_0_Conv2d_1x1_B (None, 12, 12, 128)  384         Block17_4_Branch_0_Conv2d_1x1[0][\n","__________________________________________________________________________________________________\n","Block17_4_Branch_1_Conv2d_0c_7x (None, 12, 12, 128)  384         Block17_4_Branch_1_Conv2d_0c_7x1[\n","__________________________________________________________________________________________________\n","Block17_4_Branch_0_Conv2d_1x1_A (None, 12, 12, 128)  0           Block17_4_Branch_0_Conv2d_1x1_Bat\n","__________________________________________________________________________________________________\n","Block17_4_Branch_1_Conv2d_0c_7x (None, 12, 12, 128)  0           Block17_4_Branch_1_Conv2d_0c_7x1_\n","__________________________________________________________________________________________________\n","Block17_4_Concatenate (Concaten (None, 12, 12, 256)  0           Block17_4_Branch_0_Conv2d_1x1_Act\n","                                                                 Block17_4_Branch_1_Conv2d_0c_7x1_\n","__________________________________________________________________________________________________\n","Block17_4_Conv2d_1x1 (Conv2D)   (None, 12, 12, 896)  230272      Block17_4_Concatenate[0][0]      \n","__________________________________________________________________________________________________\n","lambda_8 (Lambda)               (None, 12, 12, 896)  0           Block17_4_Conv2d_1x1[0][0]       \n","__________________________________________________________________________________________________\n","add_8 (Add)                     (None, 12, 12, 896)  0           Block17_3_Activation[0][0]       \n","                                                                 lambda_8[0][0]                   \n","__________________________________________________________________________________________________\n","Block17_4_Activation (Activatio (None, 12, 12, 896)  0           add_8[0][0]                      \n","__________________________________________________________________________________________________\n","Block17_5_Branch_1_Conv2d_0a_1x (None, 12, 12, 128)  114688      Block17_4_Activation[0][0]       \n","__________________________________________________________________________________________________\n","Block17_5_Branch_1_Conv2d_0a_1x (None, 12, 12, 128)  384         Block17_5_Branch_1_Conv2d_0a_1x1[\n","__________________________________________________________________________________________________\n","Block17_5_Branch_1_Conv2d_0a_1x (None, 12, 12, 128)  0           Block17_5_Branch_1_Conv2d_0a_1x1_\n","__________________________________________________________________________________________________\n","Block17_5_Branch_1_Conv2d_0b_1x (None, 12, 12, 128)  114688      Block17_5_Branch_1_Conv2d_0a_1x1_\n","__________________________________________________________________________________________________\n","Block17_5_Branch_1_Conv2d_0b_1x (None, 12, 12, 128)  384         Block17_5_Branch_1_Conv2d_0b_1x7[\n","__________________________________________________________________________________________________\n","Block17_5_Branch_1_Conv2d_0b_1x (None, 12, 12, 128)  0           Block17_5_Branch_1_Conv2d_0b_1x7_\n","__________________________________________________________________________________________________\n","Block17_5_Branch_0_Conv2d_1x1 ( (None, 12, 12, 128)  114688      Block17_4_Activation[0][0]       \n","__________________________________________________________________________________________________\n","Block17_5_Branch_1_Conv2d_0c_7x (None, 12, 12, 128)  114688      Block17_5_Branch_1_Conv2d_0b_1x7_\n","__________________________________________________________________________________________________\n","Block17_5_Branch_0_Conv2d_1x1_B (None, 12, 12, 128)  384         Block17_5_Branch_0_Conv2d_1x1[0][\n","__________________________________________________________________________________________________\n","Block17_5_Branch_1_Conv2d_0c_7x (None, 12, 12, 128)  384         Block17_5_Branch_1_Conv2d_0c_7x1[\n","__________________________________________________________________________________________________\n","Block17_5_Branch_0_Conv2d_1x1_A (None, 12, 12, 128)  0           Block17_5_Branch_0_Conv2d_1x1_Bat\n","__________________________________________________________________________________________________\n","Block17_5_Branch_1_Conv2d_0c_7x (None, 12, 12, 128)  0           Block17_5_Branch_1_Conv2d_0c_7x1_\n","__________________________________________________________________________________________________\n","Block17_5_Concatenate (Concaten (None, 12, 12, 256)  0           Block17_5_Branch_0_Conv2d_1x1_Act\n","                                                                 Block17_5_Branch_1_Conv2d_0c_7x1_\n","__________________________________________________________________________________________________\n","Block17_5_Conv2d_1x1 (Conv2D)   (None, 12, 12, 896)  230272      Block17_5_Concatenate[0][0]      \n","__________________________________________________________________________________________________\n","lambda_9 (Lambda)               (None, 12, 12, 896)  0           Block17_5_Conv2d_1x1[0][0]       \n","__________________________________________________________________________________________________\n","add_9 (Add)                     (None, 12, 12, 896)  0           Block17_4_Activation[0][0]       \n","                                                                 lambda_9[0][0]                   \n","__________________________________________________________________________________________________\n","Block17_5_Activation (Activatio (None, 12, 12, 896)  0           add_9[0][0]                      \n","__________________________________________________________________________________________________\n","Block17_6_Branch_1_Conv2d_0a_1x (None, 12, 12, 128)  114688      Block17_5_Activation[0][0]       \n","__________________________________________________________________________________________________\n","Block17_6_Branch_1_Conv2d_0a_1x (None, 12, 12, 128)  384         Block17_6_Branch_1_Conv2d_0a_1x1[\n","__________________________________________________________________________________________________\n","Block17_6_Branch_1_Conv2d_0a_1x (None, 12, 12, 128)  0           Block17_6_Branch_1_Conv2d_0a_1x1_\n","__________________________________________________________________________________________________\n","Block17_6_Branch_1_Conv2d_0b_1x (None, 12, 12, 128)  114688      Block17_6_Branch_1_Conv2d_0a_1x1_\n","__________________________________________________________________________________________________\n","Block17_6_Branch_1_Conv2d_0b_1x (None, 12, 12, 128)  384         Block17_6_Branch_1_Conv2d_0b_1x7[\n","__________________________________________________________________________________________________\n","Block17_6_Branch_1_Conv2d_0b_1x (None, 12, 12, 128)  0           Block17_6_Branch_1_Conv2d_0b_1x7_\n","__________________________________________________________________________________________________\n","Block17_6_Branch_0_Conv2d_1x1 ( (None, 12, 12, 128)  114688      Block17_5_Activation[0][0]       \n","__________________________________________________________________________________________________\n","Block17_6_Branch_1_Conv2d_0c_7x (None, 12, 12, 128)  114688      Block17_6_Branch_1_Conv2d_0b_1x7_\n","__________________________________________________________________________________________________\n","Block17_6_Branch_0_Conv2d_1x1_B (None, 12, 12, 128)  384         Block17_6_Branch_0_Conv2d_1x1[0][\n","__________________________________________________________________________________________________\n","Block17_6_Branch_1_Conv2d_0c_7x (None, 12, 12, 128)  384         Block17_6_Branch_1_Conv2d_0c_7x1[\n","__________________________________________________________________________________________________\n","Block17_6_Branch_0_Conv2d_1x1_A (None, 12, 12, 128)  0           Block17_6_Branch_0_Conv2d_1x1_Bat\n","__________________________________________________________________________________________________\n","Block17_6_Branch_1_Conv2d_0c_7x (None, 12, 12, 128)  0           Block17_6_Branch_1_Conv2d_0c_7x1_\n","__________________________________________________________________________________________________\n","Block17_6_Concatenate (Concaten (None, 12, 12, 256)  0           Block17_6_Branch_0_Conv2d_1x1_Act\n","                                                                 Block17_6_Branch_1_Conv2d_0c_7x1_\n","__________________________________________________________________________________________________\n","Block17_6_Conv2d_1x1 (Conv2D)   (None, 12, 12, 896)  230272      Block17_6_Concatenate[0][0]      \n","__________________________________________________________________________________________________\n","lambda_10 (Lambda)              (None, 12, 12, 896)  0           Block17_6_Conv2d_1x1[0][0]       \n","__________________________________________________________________________________________________\n","add_10 (Add)                    (None, 12, 12, 896)  0           Block17_5_Activation[0][0]       \n","                                                                 lambda_10[0][0]                  \n","__________________________________________________________________________________________________\n","Block17_6_Activation (Activatio (None, 12, 12, 896)  0           add_10[0][0]                     \n","__________________________________________________________________________________________________\n","Block17_7_Branch_1_Conv2d_0a_1x (None, 12, 12, 128)  114688      Block17_6_Activation[0][0]       \n","__________________________________________________________________________________________________\n","Block17_7_Branch_1_Conv2d_0a_1x (None, 12, 12, 128)  384         Block17_7_Branch_1_Conv2d_0a_1x1[\n","__________________________________________________________________________________________________\n","Block17_7_Branch_1_Conv2d_0a_1x (None, 12, 12, 128)  0           Block17_7_Branch_1_Conv2d_0a_1x1_\n","__________________________________________________________________________________________________\n","Block17_7_Branch_1_Conv2d_0b_1x (None, 12, 12, 128)  114688      Block17_7_Branch_1_Conv2d_0a_1x1_\n","__________________________________________________________________________________________________\n","Block17_7_Branch_1_Conv2d_0b_1x (None, 12, 12, 128)  384         Block17_7_Branch_1_Conv2d_0b_1x7[\n","__________________________________________________________________________________________________\n","Block17_7_Branch_1_Conv2d_0b_1x (None, 12, 12, 128)  0           Block17_7_Branch_1_Conv2d_0b_1x7_\n","__________________________________________________________________________________________________\n","Block17_7_Branch_0_Conv2d_1x1 ( (None, 12, 12, 128)  114688      Block17_6_Activation[0][0]       \n","__________________________________________________________________________________________________\n","Block17_7_Branch_1_Conv2d_0c_7x (None, 12, 12, 128)  114688      Block17_7_Branch_1_Conv2d_0b_1x7_\n","__________________________________________________________________________________________________\n","Block17_7_Branch_0_Conv2d_1x1_B (None, 12, 12, 128)  384         Block17_7_Branch_0_Conv2d_1x1[0][\n","__________________________________________________________________________________________________\n","Block17_7_Branch_1_Conv2d_0c_7x (None, 12, 12, 128)  384         Block17_7_Branch_1_Conv2d_0c_7x1[\n","__________________________________________________________________________________________________\n","Block17_7_Branch_0_Conv2d_1x1_A (None, 12, 12, 128)  0           Block17_7_Branch_0_Conv2d_1x1_Bat\n","__________________________________________________________________________________________________\n","Block17_7_Branch_1_Conv2d_0c_7x (None, 12, 12, 128)  0           Block17_7_Branch_1_Conv2d_0c_7x1_\n","__________________________________________________________________________________________________\n","Block17_7_Concatenate (Concaten (None, 12, 12, 256)  0           Block17_7_Branch_0_Conv2d_1x1_Act\n","                                                                 Block17_7_Branch_1_Conv2d_0c_7x1_\n","__________________________________________________________________________________________________\n","Block17_7_Conv2d_1x1 (Conv2D)   (None, 12, 12, 896)  230272      Block17_7_Concatenate[0][0]      \n","__________________________________________________________________________________________________\n","lambda_11 (Lambda)              (None, 12, 12, 896)  0           Block17_7_Conv2d_1x1[0][0]       \n","__________________________________________________________________________________________________\n","add_11 (Add)                    (None, 12, 12, 896)  0           Block17_6_Activation[0][0]       \n","                                                                 lambda_11[0][0]                  \n","__________________________________________________________________________________________________\n","Block17_7_Activation (Activatio (None, 12, 12, 896)  0           add_11[0][0]                     \n","__________________________________________________________________________________________________\n","Block17_8_Branch_1_Conv2d_0a_1x (None, 12, 12, 128)  114688      Block17_7_Activation[0][0]       \n","__________________________________________________________________________________________________\n","Block17_8_Branch_1_Conv2d_0a_1x (None, 12, 12, 128)  384         Block17_8_Branch_1_Conv2d_0a_1x1[\n","__________________________________________________________________________________________________\n","Block17_8_Branch_1_Conv2d_0a_1x (None, 12, 12, 128)  0           Block17_8_Branch_1_Conv2d_0a_1x1_\n","__________________________________________________________________________________________________\n","Block17_8_Branch_1_Conv2d_0b_1x (None, 12, 12, 128)  114688      Block17_8_Branch_1_Conv2d_0a_1x1_\n","__________________________________________________________________________________________________\n","Block17_8_Branch_1_Conv2d_0b_1x (None, 12, 12, 128)  384         Block17_8_Branch_1_Conv2d_0b_1x7[\n","__________________________________________________________________________________________________\n","Block17_8_Branch_1_Conv2d_0b_1x (None, 12, 12, 128)  0           Block17_8_Branch_1_Conv2d_0b_1x7_\n","__________________________________________________________________________________________________\n","Block17_8_Branch_0_Conv2d_1x1 ( (None, 12, 12, 128)  114688      Block17_7_Activation[0][0]       \n","__________________________________________________________________________________________________\n","Block17_8_Branch_1_Conv2d_0c_7x (None, 12, 12, 128)  114688      Block17_8_Branch_1_Conv2d_0b_1x7_\n","__________________________________________________________________________________________________\n","Block17_8_Branch_0_Conv2d_1x1_B (None, 12, 12, 128)  384         Block17_8_Branch_0_Conv2d_1x1[0][\n","__________________________________________________________________________________________________\n","Block17_8_Branch_1_Conv2d_0c_7x (None, 12, 12, 128)  384         Block17_8_Branch_1_Conv2d_0c_7x1[\n","__________________________________________________________________________________________________\n","Block17_8_Branch_0_Conv2d_1x1_A (None, 12, 12, 128)  0           Block17_8_Branch_0_Conv2d_1x1_Bat\n","__________________________________________________________________________________________________\n","Block17_8_Branch_1_Conv2d_0c_7x (None, 12, 12, 128)  0           Block17_8_Branch_1_Conv2d_0c_7x1_\n","__________________________________________________________________________________________________\n","Block17_8_Concatenate (Concaten (None, 12, 12, 256)  0           Block17_8_Branch_0_Conv2d_1x1_Act\n","                                                                 Block17_8_Branch_1_Conv2d_0c_7x1_\n","__________________________________________________________________________________________________\n","Block17_8_Conv2d_1x1 (Conv2D)   (None, 12, 12, 896)  230272      Block17_8_Concatenate[0][0]      \n","__________________________________________________________________________________________________\n","lambda_12 (Lambda)              (None, 12, 12, 896)  0           Block17_8_Conv2d_1x1[0][0]       \n","__________________________________________________________________________________________________\n","add_12 (Add)                    (None, 12, 12, 896)  0           Block17_7_Activation[0][0]       \n","                                                                 lambda_12[0][0]                  \n","__________________________________________________________________________________________________\n","Block17_8_Activation (Activatio (None, 12, 12, 896)  0           add_12[0][0]                     \n","__________________________________________________________________________________________________\n","Block17_9_Branch_1_Conv2d_0a_1x (None, 12, 12, 128)  114688      Block17_8_Activation[0][0]       \n","__________________________________________________________________________________________________\n","Block17_9_Branch_1_Conv2d_0a_1x (None, 12, 12, 128)  384         Block17_9_Branch_1_Conv2d_0a_1x1[\n","__________________________________________________________________________________________________\n","Block17_9_Branch_1_Conv2d_0a_1x (None, 12, 12, 128)  0           Block17_9_Branch_1_Conv2d_0a_1x1_\n","__________________________________________________________________________________________________\n","Block17_9_Branch_1_Conv2d_0b_1x (None, 12, 12, 128)  114688      Block17_9_Branch_1_Conv2d_0a_1x1_\n","__________________________________________________________________________________________________\n","Block17_9_Branch_1_Conv2d_0b_1x (None, 12, 12, 128)  384         Block17_9_Branch_1_Conv2d_0b_1x7[\n","__________________________________________________________________________________________________\n","Block17_9_Branch_1_Conv2d_0b_1x (None, 12, 12, 128)  0           Block17_9_Branch_1_Conv2d_0b_1x7_\n","__________________________________________________________________________________________________\n","Block17_9_Branch_0_Conv2d_1x1 ( (None, 12, 12, 128)  114688      Block17_8_Activation[0][0]       \n","__________________________________________________________________________________________________\n","Block17_9_Branch_1_Conv2d_0c_7x (None, 12, 12, 128)  114688      Block17_9_Branch_1_Conv2d_0b_1x7_\n","__________________________________________________________________________________________________\n","Block17_9_Branch_0_Conv2d_1x1_B (None, 12, 12, 128)  384         Block17_9_Branch_0_Conv2d_1x1[0][\n","__________________________________________________________________________________________________\n","Block17_9_Branch_1_Conv2d_0c_7x (None, 12, 12, 128)  384         Block17_9_Branch_1_Conv2d_0c_7x1[\n","__________________________________________________________________________________________________\n","Block17_9_Branch_0_Conv2d_1x1_A (None, 12, 12, 128)  0           Block17_9_Branch_0_Conv2d_1x1_Bat\n","__________________________________________________________________________________________________\n","Block17_9_Branch_1_Conv2d_0c_7x (None, 12, 12, 128)  0           Block17_9_Branch_1_Conv2d_0c_7x1_\n","__________________________________________________________________________________________________\n","Block17_9_Concatenate (Concaten (None, 12, 12, 256)  0           Block17_9_Branch_0_Conv2d_1x1_Act\n","                                                                 Block17_9_Branch_1_Conv2d_0c_7x1_\n","__________________________________________________________________________________________________\n","Block17_9_Conv2d_1x1 (Conv2D)   (None, 12, 12, 896)  230272      Block17_9_Concatenate[0][0]      \n","__________________________________________________________________________________________________\n","lambda_13 (Lambda)              (None, 12, 12, 896)  0           Block17_9_Conv2d_1x1[0][0]       \n","__________________________________________________________________________________________________\n","add_13 (Add)                    (None, 12, 12, 896)  0           Block17_8_Activation[0][0]       \n","                                                                 lambda_13[0][0]                  \n","__________________________________________________________________________________________________\n","Block17_9_Activation (Activatio (None, 12, 12, 896)  0           add_13[0][0]                     \n","__________________________________________________________________________________________________\n","Block17_10_Branch_1_Conv2d_0a_1 (None, 12, 12, 128)  114688      Block17_9_Activation[0][0]       \n","__________________________________________________________________________________________________\n","Block17_10_Branch_1_Conv2d_0a_1 (None, 12, 12, 128)  384         Block17_10_Branch_1_Conv2d_0a_1x1\n","__________________________________________________________________________________________________\n","Block17_10_Branch_1_Conv2d_0a_1 (None, 12, 12, 128)  0           Block17_10_Branch_1_Conv2d_0a_1x1\n","__________________________________________________________________________________________________\n","Block17_10_Branch_1_Conv2d_0b_1 (None, 12, 12, 128)  114688      Block17_10_Branch_1_Conv2d_0a_1x1\n","__________________________________________________________________________________________________\n","Block17_10_Branch_1_Conv2d_0b_1 (None, 12, 12, 128)  384         Block17_10_Branch_1_Conv2d_0b_1x7\n","__________________________________________________________________________________________________\n","Block17_10_Branch_1_Conv2d_0b_1 (None, 12, 12, 128)  0           Block17_10_Branch_1_Conv2d_0b_1x7\n","__________________________________________________________________________________________________\n","Block17_10_Branch_0_Conv2d_1x1  (None, 12, 12, 128)  114688      Block17_9_Activation[0][0]       \n","__________________________________________________________________________________________________\n","Block17_10_Branch_1_Conv2d_0c_7 (None, 12, 12, 128)  114688      Block17_10_Branch_1_Conv2d_0b_1x7\n","__________________________________________________________________________________________________\n","Block17_10_Branch_0_Conv2d_1x1_ (None, 12, 12, 128)  384         Block17_10_Branch_0_Conv2d_1x1[0]\n","__________________________________________________________________________________________________\n","Block17_10_Branch_1_Conv2d_0c_7 (None, 12, 12, 128)  384         Block17_10_Branch_1_Conv2d_0c_7x1\n","__________________________________________________________________________________________________\n","Block17_10_Branch_0_Conv2d_1x1_ (None, 12, 12, 128)  0           Block17_10_Branch_0_Conv2d_1x1_Ba\n","__________________________________________________________________________________________________\n","Block17_10_Branch_1_Conv2d_0c_7 (None, 12, 12, 128)  0           Block17_10_Branch_1_Conv2d_0c_7x1\n","__________________________________________________________________________________________________\n","Block17_10_Concatenate (Concate (None, 12, 12, 256)  0           Block17_10_Branch_0_Conv2d_1x1_Ac\n","                                                                 Block17_10_Branch_1_Conv2d_0c_7x1\n","__________________________________________________________________________________________________\n","Block17_10_Conv2d_1x1 (Conv2D)  (None, 12, 12, 896)  230272      Block17_10_Concatenate[0][0]     \n","__________________________________________________________________________________________________\n","lambda_14 (Lambda)              (None, 12, 12, 896)  0           Block17_10_Conv2d_1x1[0][0]      \n","__________________________________________________________________________________________________\n","add_14 (Add)                    (None, 12, 12, 896)  0           Block17_9_Activation[0][0]       \n","                                                                 lambda_14[0][0]                  \n","__________________________________________________________________________________________________\n","Block17_10_Activation (Activati (None, 12, 12, 896)  0           add_14[0][0]                     \n","__________________________________________________________________________________________________\n","Mixed_7a_Branch_2_Conv2d_0a_1x1 (None, 12, 12, 256)  229376      Block17_10_Activation[0][0]      \n","__________________________________________________________________________________________________\n","Mixed_7a_Branch_2_Conv2d_0a_1x1 (None, 12, 12, 256)  768         Mixed_7a_Branch_2_Conv2d_0a_1x1[0\n","__________________________________________________________________________________________________\n","Mixed_7a_Branch_2_Conv2d_0a_1x1 (None, 12, 12, 256)  0           Mixed_7a_Branch_2_Conv2d_0a_1x1_B\n","__________________________________________________________________________________________________\n","Mixed_7a_Branch_0_Conv2d_0a_1x1 (None, 12, 12, 256)  229376      Block17_10_Activation[0][0]      \n","__________________________________________________________________________________________________\n","Mixed_7a_Branch_1_Conv2d_0a_1x1 (None, 12, 12, 256)  229376      Block17_10_Activation[0][0]      \n","__________________________________________________________________________________________________\n","Mixed_7a_Branch_2_Conv2d_0b_3x3 (None, 12, 12, 256)  589824      Mixed_7a_Branch_2_Conv2d_0a_1x1_A\n","__________________________________________________________________________________________________\n","Mixed_7a_Branch_0_Conv2d_0a_1x1 (None, 12, 12, 256)  768         Mixed_7a_Branch_0_Conv2d_0a_1x1[0\n","__________________________________________________________________________________________________\n","Mixed_7a_Branch_1_Conv2d_0a_1x1 (None, 12, 12, 256)  768         Mixed_7a_Branch_1_Conv2d_0a_1x1[0\n","__________________________________________________________________________________________________\n","Mixed_7a_Branch_2_Conv2d_0b_3x3 (None, 12, 12, 256)  768         Mixed_7a_Branch_2_Conv2d_0b_3x3[0\n","__________________________________________________________________________________________________\n","Mixed_7a_Branch_0_Conv2d_0a_1x1 (None, 12, 12, 256)  0           Mixed_7a_Branch_0_Conv2d_0a_1x1_B\n","__________________________________________________________________________________________________\n","Mixed_7a_Branch_1_Conv2d_0a_1x1 (None, 12, 12, 256)  0           Mixed_7a_Branch_1_Conv2d_0a_1x1_B\n","__________________________________________________________________________________________________\n","Mixed_7a_Branch_2_Conv2d_0b_3x3 (None, 12, 12, 256)  0           Mixed_7a_Branch_2_Conv2d_0b_3x3_B\n","__________________________________________________________________________________________________\n","Mixed_7a_Branch_0_Conv2d_1a_3x3 (None, 5, 5, 384)    884736      Mixed_7a_Branch_0_Conv2d_0a_1x1_A\n","__________________________________________________________________________________________________\n","Mixed_7a_Branch_1_Conv2d_1a_3x3 (None, 5, 5, 256)    589824      Mixed_7a_Branch_1_Conv2d_0a_1x1_A\n","__________________________________________________________________________________________________\n","Mixed_7a_Branch_2_Conv2d_1a_3x3 (None, 5, 5, 256)    589824      Mixed_7a_Branch_2_Conv2d_0b_3x3_A\n","__________________________________________________________________________________________________\n","Mixed_7a_Branch_0_Conv2d_1a_3x3 (None, 5, 5, 384)    1152        Mixed_7a_Branch_0_Conv2d_1a_3x3[0\n","__________________________________________________________________________________________________\n","Mixed_7a_Branch_1_Conv2d_1a_3x3 (None, 5, 5, 256)    768         Mixed_7a_Branch_1_Conv2d_1a_3x3[0\n","__________________________________________________________________________________________________\n","Mixed_7a_Branch_2_Conv2d_1a_3x3 (None, 5, 5, 256)    768         Mixed_7a_Branch_2_Conv2d_1a_3x3[0\n","__________________________________________________________________________________________________\n","Mixed_7a_Branch_0_Conv2d_1a_3x3 (None, 5, 5, 384)    0           Mixed_7a_Branch_0_Conv2d_1a_3x3_B\n","__________________________________________________________________________________________________\n","Mixed_7a_Branch_1_Conv2d_1a_3x3 (None, 5, 5, 256)    0           Mixed_7a_Branch_1_Conv2d_1a_3x3_B\n","__________________________________________________________________________________________________\n","Mixed_7a_Branch_2_Conv2d_1a_3x3 (None, 5, 5, 256)    0           Mixed_7a_Branch_2_Conv2d_1a_3x3_B\n","__________________________________________________________________________________________________\n","Mixed_7a_Branch_3_MaxPool_1a_3x (None, 5, 5, 896)    0           Block17_10_Activation[0][0]      \n","__________________________________________________________________________________________________\n","Mixed_7a (Concatenate)          (None, 5, 5, 1792)   0           Mixed_7a_Branch_0_Conv2d_1a_3x3_A\n","                                                                 Mixed_7a_Branch_1_Conv2d_1a_3x3_A\n","                                                                 Mixed_7a_Branch_2_Conv2d_1a_3x3_A\n","                                                                 Mixed_7a_Branch_3_MaxPool_1a_3x3[\n","__________________________________________________________________________________________________\n","Block8_1_Branch_1_Conv2d_0a_1x1 (None, 5, 5, 192)    344064      Mixed_7a[0][0]                   \n","__________________________________________________________________________________________________\n","Block8_1_Branch_1_Conv2d_0a_1x1 (None, 5, 5, 192)    576         Block8_1_Branch_1_Conv2d_0a_1x1[0\n","__________________________________________________________________________________________________\n","Block8_1_Branch_1_Conv2d_0a_1x1 (None, 5, 5, 192)    0           Block8_1_Branch_1_Conv2d_0a_1x1_B\n","__________________________________________________________________________________________________\n","Block8_1_Branch_1_Conv2d_0b_1x3 (None, 5, 5, 192)    110592      Block8_1_Branch_1_Conv2d_0a_1x1_A\n","__________________________________________________________________________________________________\n","Block8_1_Branch_1_Conv2d_0b_1x3 (None, 5, 5, 192)    576         Block8_1_Branch_1_Conv2d_0b_1x3[0\n","__________________________________________________________________________________________________\n","Block8_1_Branch_1_Conv2d_0b_1x3 (None, 5, 5, 192)    0           Block8_1_Branch_1_Conv2d_0b_1x3_B\n","__________________________________________________________________________________________________\n","Block8_1_Branch_0_Conv2d_1x1 (C (None, 5, 5, 192)    344064      Mixed_7a[0][0]                   \n","__________________________________________________________________________________________________\n","Block8_1_Branch_1_Conv2d_0c_3x1 (None, 5, 5, 192)    110592      Block8_1_Branch_1_Conv2d_0b_1x3_A\n","__________________________________________________________________________________________________\n","Block8_1_Branch_0_Conv2d_1x1_Ba (None, 5, 5, 192)    576         Block8_1_Branch_0_Conv2d_1x1[0][0\n","__________________________________________________________________________________________________\n","Block8_1_Branch_1_Conv2d_0c_3x1 (None, 5, 5, 192)    576         Block8_1_Branch_1_Conv2d_0c_3x1[0\n","__________________________________________________________________________________________________\n","Block8_1_Branch_0_Conv2d_1x1_Ac (None, 5, 5, 192)    0           Block8_1_Branch_0_Conv2d_1x1_Batc\n","__________________________________________________________________________________________________\n","Block8_1_Branch_1_Conv2d_0c_3x1 (None, 5, 5, 192)    0           Block8_1_Branch_1_Conv2d_0c_3x1_B\n","__________________________________________________________________________________________________\n","Block8_1_Concatenate (Concatena (None, 5, 5, 384)    0           Block8_1_Branch_0_Conv2d_1x1_Acti\n","                                                                 Block8_1_Branch_1_Conv2d_0c_3x1_A\n","__________________________________________________________________________________________________\n","Block8_1_Conv2d_1x1 (Conv2D)    (None, 5, 5, 1792)   689920      Block8_1_Concatenate[0][0]       \n","__________________________________________________________________________________________________\n","lambda_15 (Lambda)              (None, 5, 5, 1792)   0           Block8_1_Conv2d_1x1[0][0]        \n","__________________________________________________________________________________________________\n","add_15 (Add)                    (None, 5, 5, 1792)   0           Mixed_7a[0][0]                   \n","                                                                 lambda_15[0][0]                  \n","__________________________________________________________________________________________________\n","Block8_1_Activation (Activation (None, 5, 5, 1792)   0           add_15[0][0]                     \n","__________________________________________________________________________________________________\n","Block8_2_Branch_1_Conv2d_0a_1x1 (None, 5, 5, 192)    344064      Block8_1_Activation[0][0]        \n","__________________________________________________________________________________________________\n","Block8_2_Branch_1_Conv2d_0a_1x1 (None, 5, 5, 192)    576         Block8_2_Branch_1_Conv2d_0a_1x1[0\n","__________________________________________________________________________________________________\n","Block8_2_Branch_1_Conv2d_0a_1x1 (None, 5, 5, 192)    0           Block8_2_Branch_1_Conv2d_0a_1x1_B\n","__________________________________________________________________________________________________\n","Block8_2_Branch_1_Conv2d_0b_1x3 (None, 5, 5, 192)    110592      Block8_2_Branch_1_Conv2d_0a_1x1_A\n","__________________________________________________________________________________________________\n","Block8_2_Branch_1_Conv2d_0b_1x3 (None, 5, 5, 192)    576         Block8_2_Branch_1_Conv2d_0b_1x3[0\n","__________________________________________________________________________________________________\n","Block8_2_Branch_1_Conv2d_0b_1x3 (None, 5, 5, 192)    0           Block8_2_Branch_1_Conv2d_0b_1x3_B\n","__________________________________________________________________________________________________\n","Block8_2_Branch_0_Conv2d_1x1 (C (None, 5, 5, 192)    344064      Block8_1_Activation[0][0]        \n","__________________________________________________________________________________________________\n","Block8_2_Branch_1_Conv2d_0c_3x1 (None, 5, 5, 192)    110592      Block8_2_Branch_1_Conv2d_0b_1x3_A\n","__________________________________________________________________________________________________\n","Block8_2_Branch_0_Conv2d_1x1_Ba (None, 5, 5, 192)    576         Block8_2_Branch_0_Conv2d_1x1[0][0\n","__________________________________________________________________________________________________\n","Block8_2_Branch_1_Conv2d_0c_3x1 (None, 5, 5, 192)    576         Block8_2_Branch_1_Conv2d_0c_3x1[0\n","__________________________________________________________________________________________________\n","Block8_2_Branch_0_Conv2d_1x1_Ac (None, 5, 5, 192)    0           Block8_2_Branch_0_Conv2d_1x1_Batc\n","__________________________________________________________________________________________________\n","Block8_2_Branch_1_Conv2d_0c_3x1 (None, 5, 5, 192)    0           Block8_2_Branch_1_Conv2d_0c_3x1_B\n","__________________________________________________________________________________________________\n","Block8_2_Concatenate (Concatena (None, 5, 5, 384)    0           Block8_2_Branch_0_Conv2d_1x1_Acti\n","                                                                 Block8_2_Branch_1_Conv2d_0c_3x1_A\n","__________________________________________________________________________________________________\n","Block8_2_Conv2d_1x1 (Conv2D)    (None, 5, 5, 1792)   689920      Block8_2_Concatenate[0][0]       \n","__________________________________________________________________________________________________\n","lambda_16 (Lambda)              (None, 5, 5, 1792)   0           Block8_2_Conv2d_1x1[0][0]        \n","__________________________________________________________________________________________________\n","add_16 (Add)                    (None, 5, 5, 1792)   0           Block8_1_Activation[0][0]        \n","                                                                 lambda_16[0][0]                  \n","__________________________________________________________________________________________________\n","Block8_2_Activation (Activation (None, 5, 5, 1792)   0           add_16[0][0]                     \n","__________________________________________________________________________________________________\n","Block8_3_Branch_1_Conv2d_0a_1x1 (None, 5, 5, 192)    344064      Block8_2_Activation[0][0]        \n","__________________________________________________________________________________________________\n","Block8_3_Branch_1_Conv2d_0a_1x1 (None, 5, 5, 192)    576         Block8_3_Branch_1_Conv2d_0a_1x1[0\n","__________________________________________________________________________________________________\n","Block8_3_Branch_1_Conv2d_0a_1x1 (None, 5, 5, 192)    0           Block8_3_Branch_1_Conv2d_0a_1x1_B\n","__________________________________________________________________________________________________\n","Block8_3_Branch_1_Conv2d_0b_1x3 (None, 5, 5, 192)    110592      Block8_3_Branch_1_Conv2d_0a_1x1_A\n","__________________________________________________________________________________________________\n","Block8_3_Branch_1_Conv2d_0b_1x3 (None, 5, 5, 192)    576         Block8_3_Branch_1_Conv2d_0b_1x3[0\n","__________________________________________________________________________________________________\n","Block8_3_Branch_1_Conv2d_0b_1x3 (None, 5, 5, 192)    0           Block8_3_Branch_1_Conv2d_0b_1x3_B\n","__________________________________________________________________________________________________\n","Block8_3_Branch_0_Conv2d_1x1 (C (None, 5, 5, 192)    344064      Block8_2_Activation[0][0]        \n","__________________________________________________________________________________________________\n","Block8_3_Branch_1_Conv2d_0c_3x1 (None, 5, 5, 192)    110592      Block8_3_Branch_1_Conv2d_0b_1x3_A\n","__________________________________________________________________________________________________\n","Block8_3_Branch_0_Conv2d_1x1_Ba (None, 5, 5, 192)    576         Block8_3_Branch_0_Conv2d_1x1[0][0\n","__________________________________________________________________________________________________\n","Block8_3_Branch_1_Conv2d_0c_3x1 (None, 5, 5, 192)    576         Block8_3_Branch_1_Conv2d_0c_3x1[0\n","__________________________________________________________________________________________________\n","Block8_3_Branch_0_Conv2d_1x1_Ac (None, 5, 5, 192)    0           Block8_3_Branch_0_Conv2d_1x1_Batc\n","__________________________________________________________________________________________________\n","Block8_3_Branch_1_Conv2d_0c_3x1 (None, 5, 5, 192)    0           Block8_3_Branch_1_Conv2d_0c_3x1_B\n","__________________________________________________________________________________________________\n","Block8_3_Concatenate (Concatena (None, 5, 5, 384)    0           Block8_3_Branch_0_Conv2d_1x1_Acti\n","                                                                 Block8_3_Branch_1_Conv2d_0c_3x1_A\n","__________________________________________________________________________________________________\n","Block8_3_Conv2d_1x1 (Conv2D)    (None, 5, 5, 1792)   689920      Block8_3_Concatenate[0][0]       \n","__________________________________________________________________________________________________\n","lambda_17 (Lambda)              (None, 5, 5, 1792)   0           Block8_3_Conv2d_1x1[0][0]        \n","__________________________________________________________________________________________________\n","add_17 (Add)                    (None, 5, 5, 1792)   0           Block8_2_Activation[0][0]        \n","                                                                 lambda_17[0][0]                  \n","__________________________________________________________________________________________________\n","Block8_3_Activation (Activation (None, 5, 5, 1792)   0           add_17[0][0]                     \n","__________________________________________________________________________________________________\n","Block8_4_Branch_1_Conv2d_0a_1x1 (None, 5, 5, 192)    344064      Block8_3_Activation[0][0]        \n","__________________________________________________________________________________________________\n","Block8_4_Branch_1_Conv2d_0a_1x1 (None, 5, 5, 192)    576         Block8_4_Branch_1_Conv2d_0a_1x1[0\n","__________________________________________________________________________________________________\n","Block8_4_Branch_1_Conv2d_0a_1x1 (None, 5, 5, 192)    0           Block8_4_Branch_1_Conv2d_0a_1x1_B\n","__________________________________________________________________________________________________\n","Block8_4_Branch_1_Conv2d_0b_1x3 (None, 5, 5, 192)    110592      Block8_4_Branch_1_Conv2d_0a_1x1_A\n","__________________________________________________________________________________________________\n","Block8_4_Branch_1_Conv2d_0b_1x3 (None, 5, 5, 192)    576         Block8_4_Branch_1_Conv2d_0b_1x3[0\n","__________________________________________________________________________________________________\n","Block8_4_Branch_1_Conv2d_0b_1x3 (None, 5, 5, 192)    0           Block8_4_Branch_1_Conv2d_0b_1x3_B\n","__________________________________________________________________________________________________\n","Block8_4_Branch_0_Conv2d_1x1 (C (None, 5, 5, 192)    344064      Block8_3_Activation[0][0]        \n","__________________________________________________________________________________________________\n","Block8_4_Branch_1_Conv2d_0c_3x1 (None, 5, 5, 192)    110592      Block8_4_Branch_1_Conv2d_0b_1x3_A\n","__________________________________________________________________________________________________\n","Block8_4_Branch_0_Conv2d_1x1_Ba (None, 5, 5, 192)    576         Block8_4_Branch_0_Conv2d_1x1[0][0\n","__________________________________________________________________________________________________\n","Block8_4_Branch_1_Conv2d_0c_3x1 (None, 5, 5, 192)    576         Block8_4_Branch_1_Conv2d_0c_3x1[0\n","__________________________________________________________________________________________________\n","Block8_4_Branch_0_Conv2d_1x1_Ac (None, 5, 5, 192)    0           Block8_4_Branch_0_Conv2d_1x1_Batc\n","__________________________________________________________________________________________________\n","Block8_4_Branch_1_Conv2d_0c_3x1 (None, 5, 5, 192)    0           Block8_4_Branch_1_Conv2d_0c_3x1_B\n","__________________________________________________________________________________________________\n","Block8_4_Concatenate (Concatena (None, 5, 5, 384)    0           Block8_4_Branch_0_Conv2d_1x1_Acti\n","                                                                 Block8_4_Branch_1_Conv2d_0c_3x1_A\n","__________________________________________________________________________________________________\n","Block8_4_Conv2d_1x1 (Conv2D)    (None, 5, 5, 1792)   689920      Block8_4_Concatenate[0][0]       \n","__________________________________________________________________________________________________\n","lambda_18 (Lambda)              (None, 5, 5, 1792)   0           Block8_4_Conv2d_1x1[0][0]        \n","__________________________________________________________________________________________________\n","add_18 (Add)                    (None, 5, 5, 1792)   0           Block8_3_Activation[0][0]        \n","                                                                 lambda_18[0][0]                  \n","__________________________________________________________________________________________________\n","Block8_4_Activation (Activation (None, 5, 5, 1792)   0           add_18[0][0]                     \n","__________________________________________________________________________________________________\n","Block8_5_Branch_1_Conv2d_0a_1x1 (None, 5, 5, 192)    344064      Block8_4_Activation[0][0]        \n","__________________________________________________________________________________________________\n","Block8_5_Branch_1_Conv2d_0a_1x1 (None, 5, 5, 192)    576         Block8_5_Branch_1_Conv2d_0a_1x1[0\n","__________________________________________________________________________________________________\n","Block8_5_Branch_1_Conv2d_0a_1x1 (None, 5, 5, 192)    0           Block8_5_Branch_1_Conv2d_0a_1x1_B\n","__________________________________________________________________________________________________\n","Block8_5_Branch_1_Conv2d_0b_1x3 (None, 5, 5, 192)    110592      Block8_5_Branch_1_Conv2d_0a_1x1_A\n","__________________________________________________________________________________________________\n","Block8_5_Branch_1_Conv2d_0b_1x3 (None, 5, 5, 192)    576         Block8_5_Branch_1_Conv2d_0b_1x3[0\n","__________________________________________________________________________________________________\n","Block8_5_Branch_1_Conv2d_0b_1x3 (None, 5, 5, 192)    0           Block8_5_Branch_1_Conv2d_0b_1x3_B\n","__________________________________________________________________________________________________\n","Block8_5_Branch_0_Conv2d_1x1 (C (None, 5, 5, 192)    344064      Block8_4_Activation[0][0]        \n","__________________________________________________________________________________________________\n","Block8_5_Branch_1_Conv2d_0c_3x1 (None, 5, 5, 192)    110592      Block8_5_Branch_1_Conv2d_0b_1x3_A\n","__________________________________________________________________________________________________\n","Block8_5_Branch_0_Conv2d_1x1_Ba (None, 5, 5, 192)    576         Block8_5_Branch_0_Conv2d_1x1[0][0\n","__________________________________________________________________________________________________\n","Block8_5_Branch_1_Conv2d_0c_3x1 (None, 5, 5, 192)    576         Block8_5_Branch_1_Conv2d_0c_3x1[0\n","__________________________________________________________________________________________________\n","Block8_5_Branch_0_Conv2d_1x1_Ac (None, 5, 5, 192)    0           Block8_5_Branch_0_Conv2d_1x1_Batc\n","__________________________________________________________________________________________________\n","Block8_5_Branch_1_Conv2d_0c_3x1 (None, 5, 5, 192)    0           Block8_5_Branch_1_Conv2d_0c_3x1_B\n","__________________________________________________________________________________________________\n","Block8_5_Concatenate (Concatena (None, 5, 5, 384)    0           Block8_5_Branch_0_Conv2d_1x1_Acti\n","                                                                 Block8_5_Branch_1_Conv2d_0c_3x1_A\n","__________________________________________________________________________________________________\n","Block8_5_Conv2d_1x1 (Conv2D)    (None, 5, 5, 1792)   689920      Block8_5_Concatenate[0][0]       \n","__________________________________________________________________________________________________\n","lambda_19 (Lambda)              (None, 5, 5, 1792)   0           Block8_5_Conv2d_1x1[0][0]        \n","__________________________________________________________________________________________________\n","add_19 (Add)                    (None, 5, 5, 1792)   0           Block8_4_Activation[0][0]        \n","                                                                 lambda_19[0][0]                  \n","__________________________________________________________________________________________________\n","Block8_5_Activation (Activation (None, 5, 5, 1792)   0           add_19[0][0]                     \n","__________________________________________________________________________________________________\n","Block8_6_Branch_1_Conv2d_0a_1x1 (None, 5, 5, 192)    344064      Block8_5_Activation[0][0]        \n","__________________________________________________________________________________________________\n","Block8_6_Branch_1_Conv2d_0a_1x1 (None, 5, 5, 192)    576         Block8_6_Branch_1_Conv2d_0a_1x1[0\n","__________________________________________________________________________________________________\n","Block8_6_Branch_1_Conv2d_0a_1x1 (None, 5, 5, 192)    0           Block8_6_Branch_1_Conv2d_0a_1x1_B\n","__________________________________________________________________________________________________\n","Block8_6_Branch_1_Conv2d_0b_1x3 (None, 5, 5, 192)    110592      Block8_6_Branch_1_Conv2d_0a_1x1_A\n","__________________________________________________________________________________________________\n","Block8_6_Branch_1_Conv2d_0b_1x3 (None, 5, 5, 192)    576         Block8_6_Branch_1_Conv2d_0b_1x3[0\n","__________________________________________________________________________________________________\n","Block8_6_Branch_1_Conv2d_0b_1x3 (None, 5, 5, 192)    0           Block8_6_Branch_1_Conv2d_0b_1x3_B\n","__________________________________________________________________________________________________\n","Block8_6_Branch_0_Conv2d_1x1 (C (None, 5, 5, 192)    344064      Block8_5_Activation[0][0]        \n","__________________________________________________________________________________________________\n","Block8_6_Branch_1_Conv2d_0c_3x1 (None, 5, 5, 192)    110592      Block8_6_Branch_1_Conv2d_0b_1x3_A\n","__________________________________________________________________________________________________\n","Block8_6_Branch_0_Conv2d_1x1_Ba (None, 5, 5, 192)    576         Block8_6_Branch_0_Conv2d_1x1[0][0\n","__________________________________________________________________________________________________\n","Block8_6_Branch_1_Conv2d_0c_3x1 (None, 5, 5, 192)    576         Block8_6_Branch_1_Conv2d_0c_3x1[0\n","__________________________________________________________________________________________________\n","Block8_6_Branch_0_Conv2d_1x1_Ac (None, 5, 5, 192)    0           Block8_6_Branch_0_Conv2d_1x1_Batc\n","__________________________________________________________________________________________________\n","Block8_6_Branch_1_Conv2d_0c_3x1 (None, 5, 5, 192)    0           Block8_6_Branch_1_Conv2d_0c_3x1_B\n","__________________________________________________________________________________________________\n","Block8_6_Concatenate (Concatena (None, 5, 5, 384)    0           Block8_6_Branch_0_Conv2d_1x1_Acti\n","                                                                 Block8_6_Branch_1_Conv2d_0c_3x1_A\n","__________________________________________________________________________________________________\n","Block8_6_Conv2d_1x1 (Conv2D)    (None, 5, 5, 1792)   689920      Block8_6_Concatenate[0][0]       \n","__________________________________________________________________________________________________\n","lambda_20 (Lambda)              (None, 5, 5, 1792)   0           Block8_6_Conv2d_1x1[0][0]        \n","__________________________________________________________________________________________________\n","add_20 (Add)                    (None, 5, 5, 1792)   0           Block8_5_Activation[0][0]        \n","                                                                 lambda_20[0][0]                  \n","__________________________________________________________________________________________________\n","AvgPool (GlobalAveragePooling2D (None, 1792)         0           add_20[0][0]                     \n","__________________________________________________________________________________________________\n","Dropout (Dropout)               (None, 1792)         0           AvgPool[0][0]                    \n","__________________________________________________________________________________________________\n","Bottleneck (Dense)              (None, 128)          229376      Dropout[0][0]                    \n","__________________________________________________________________________________________________\n","Bottleneck_BatchNorm (BatchNorm (None, 128)          384         Bottleneck[0][0]                 \n","==================================================================================================\n","Total params: 22,808,144\n","Trainable params: 0\n","Non-trainable params: 22,808,144\n","__________________________________________________________________________________________________\n"],"name":"stdout"}]},{"cell_type":"code","metadata":{"id":"
…
out(0.5)(x)\n","predictions = Dense(classes, activation='softmax')(x)\n","\n","my_model = Model(inputs=base_model.input, outputs=predictions)\n","\n","my_model.summary()"],"execution_count":11,"outputs":[{"output_type":"stream","text":["Model: \"model\"\n","__________________________________________________________________________________________________\n","Layer (type)                    Output Shape         Param #     Connected to                     \n","==================================================================================================\n","input_1 (InputLayer)            [(None, 224, 224, 3) 0                                            \n","__________________________________________________________________________________________________\n","Conv2d_1a_3x3 (Conv2D)          (None, 111, 111, 32) 864         input_1[0][0]                    \n","__________________________________________________________________________________________________\n","Conv2d_1a_3x3_BatchNorm (BatchN (None, 111, 111, 32) 96          Conv2d_1a_3x3[0][0]              \n","__________________________________________________________________________________________________\n","Conv2d_1a_3x3_Activation (Activ (None, 111, 111, 32) 0           Conv2d_1a_3x3_BatchNorm[0][0]    \n","__________________________________________________________________________________________________\n","Conv2d_2a_3x3 (Conv2D)          (None, 109, 109, 32) 9216        Conv2d_1a_3x3_Activation[0][0]   \n","__________________________________________________________________________________________________\n","Conv2d_2a_3x3_BatchNorm (BatchN (None, 109, 109, 32) 96          Conv2d_2a_3x3[0][0]              \n","__________________________________________________________________________________________________\n","Conv2d_2a_3x3_Activation (Activ (None, 109, 109, 32) 0           Conv2d_2a_3x3_BatchNorm[0][0]    \n","__________________________________________________________________________________________________\n","Conv2d_2b_3x3 (Conv2D)          (None, 109, 109, 64) 18432       Conv2d_2a_3x3_Activation[0][0]   \n","__________________________________________________________________________________________________\n","Conv2d_2b_3x3_BatchNorm (BatchN (None, 109, 109, 64) 192         Conv2d_2b_3x3[0][0]              \n","__________________________________________________________________________________________________\n","Conv2d_2b_3x3_Activation (Activ (None, 109, 109, 64) 0           Conv2d_2b_3x3_BatchNorm[0][0]    \n","__________________________________________________________________________________________________\n","MaxPool_3a_3x3 (MaxPooling2D)   (None, 54, 54, 64)   0           Conv2d_2b_3x3_Activation[0][0]   \n","__________________________________________________________________________________________________\n","Conv2d_3b_1x1 (Conv2D)          (None, 54, 54, 80)   5120        MaxPool_3a_3x3[0][0]             \n","__________________________________________________________________________________________________\n","Conv2d_3b_1x1_BatchNorm (BatchN (None, 54, 54, 80)   240         Conv2d_3b_1x1[0][0]              \n","__________________________________________________________________________________________________\n","Conv2d_3b_1x1_Activation (Activ (None, 54, 54, 80)   0           Conv2d_3b_1x1_BatchNorm[0][0]    \n","__________________________________________________________________________________________________\n","Conv2d_4a_3x3 (Conv2D)          (None, 52, 52, 192)  138240      Conv2d_3b_1x1_Activation[0][0]   \n","__________________________________________________________________________________________________\n","Conv2d_4a_3x3_BatchNorm (BatchN (None, 52, 52, 192)  576         Conv2d_4a_3x3[0][0]              \n","__________________________________________________________________________________________________\n","Conv2d_4a_3x3_Activation (Activ (None, 52, 52, 192)  0           Conv2d_4a_3x3_BatchNorm[0][0]    \n","__________________________________________________________________________________________________\n","Conv2d_4b_3x3 (Conv2D)          (None, 25, 25, 256)  442368      Conv2d_4a_3x3_Activation[0][0]   \n","__________________________________________________________________________________________________\n","Conv2d_4b_3x3_BatchNorm (BatchN (None, 25, 25, 256)  768         Conv2d_4b_3x3[0][0]              \n","__________________________________________________________________________________________________\n","Conv2d_4b_3x3_Activation (Activ (None, 25, 25, 256)  0           Conv2d_4b_3x3_BatchNorm[0][0]    \n","__________________________________________________________________________________________________\n","Block35_1_Branch_2_Conv2d_0a_1x (None, 25, 25, 32)   8192        Conv2d_4b_3x3_Activation[0][0]   \n","__________________________________________________________________________________________________\n","Block35_1_Branch_2_Conv2d_0a_1x (None, 25, 25, 32)   96          Block35_1_Branch_2_Conv2d_0a_1x1[\n","__________________________________________________________________________________________________\n","Block35_1_Branch_2_Conv2d_0a_1x (None, 25, 25, 32)   0           Block35_1_Branch_2_Conv2d_0a_1x1_\n","__________________________________________________________________________________________________\n","Block35_1_Branch_1_Conv2d_0a_1x (None, 25, 25, 32)   8192        Conv2d_4b_3x3_Activation[0][0]   \n","__________________________________________________________________________________________________\n","Block35_1_Branch_2_Conv2d_0b_3x (None, 25, 25, 32)   9216        Block35_1_Branch_2_Conv2d_0a_1x1_\n","__________________________________________________________________________________________________\n","Block35_1_Branch_1_Conv2d_0a_1x (None, 25, 25, 32)   96          Block35_1_Branch_1_Conv2d_0a_1x1[\n","__________________________________________________________________________________________________\n","Block35_1_Branch_2_Conv2d_0b_3x (None, 25, 25, 32)   96          Block35_1_Branch_2_Conv2d_0b_3x3[\n","__________________________________________________________________________________________________\n","Block35_1_Branch_1_Conv2d_0a_1x (None, 25, 25, 32)   0           Block35_1_Branch_1_Conv2d_0a_1x1_\n","__________________________________________________________________________________________________\n","Block35_1_Branch_2_Conv2d_0b_3x (None, 25, 25, 32)   0           Block35_1_Branch_2_Conv2d_0b_3x3_\n","__________________________________________________________________________________________________\n","Block35_1_Branch_0_Conv2d_1x1 ( (None, 25, 25, 32)   8192        Conv2d_4b_3x3_Activation[0][0]   \n","__________________________________________________________________________________________________\n","Block35_1_Branch_1_Conv2d_0b_3x (None, 25, 25, 32)   9216        Block35_1_Branch_1_Conv2d_0a_1x1_\n","__________________________________________________________________________________________________\n","Block35_1_Branch_2_Conv2d_0c_3x (None, 25, 25, 32)   9216        Block35_1_Branch_2_Conv2d_0b_3x3_\n","__________________________________________________________________________________________________\n","Block35_1_Branch_0_Conv2d_1x1_B (None, 25, 25, 32)   96          Block35_1_Branch_0_Conv2d_1x1[0][\n","__________________________________________________________________________________________________\n","Block35_1_Branch_1_Conv2d_0b_3x (None, 25, 25, 32)   96          Block35_1_Branch_1_Conv2d_0b_3x3[\n","__________________________________________________________________________________________________\n","Block35_1_Branch_2_Conv2d_0c_3x (None, 25, 25, 32)   96          Block35_1_Branch_2_Conv2d_0c_3x3[\n","__________________________________________________________________________________________________\n","Block35_1_Branch_0_Conv2d_1x1_A (None, 25, 25, 32)   0           Block35_1_Branch_0_Conv2d_1x1_Bat\n","__________________________________________________________________________________________________\n","Block35_1_Branch_1_Conv2d_0b_3x (None, 25, 25, 32)   0           Block35_1_Branch_1_Conv2d_0b_3x3_\n","__________________________________________________________________________________________________\n","Block35_1_Branch_2_Conv2d_0c_3x (None, 25, 25, 32)   0           Block35_1_Branch_2_Conv2d_0c_3x3_\n","__________________________________________________________________________________________________\n","Block35_1_Concatenate (Concaten (None, 25, 25, 96)   0           Block35_1_Branch_0_Conv2d_1x1_Act\n","                                                                 Block35_1_Branch_1_Conv2d_0b_3x3_\n","                                                                 Block35_1_Branch_2_Conv2d_0c_3x3_\n","__________________________________________________________________________________________________\n","Block35_1_Conv2d_1x1 (Conv2D)   (None, 25, 25, 256)  24832       Block35_1_Concatenate[0][0]      \n","__________________________________________________________________________________________________\n","lambda (Lambda)                 (None, 25, 25, 256)  0           Block35_1_Conv2d_1x1[0][0]       \n","__________________________________________________________________________________________________\n","add (Add)                       (None, 25, 25, 256)  0           Conv2d_4b_3x3_Activation[0][0]   \n","                                                                 lambda[0][0]                     \n","__________________________________________________________________________________________________\n","Block35_1_Activation (Activatio (None, 25, 25, 256)  0           add[0][0]                        \n","__________________________________________________________________________________________________\n","Block35_2_Branch_2_Conv2d_0a_1x (None, 25, 25, 32)   8192        Block35_1_Activation[0][0]       \n","__________________________________________________________________________________________________\n","Block35_2_Branch_2_Conv2d_0a_1x (None, 25, 25, 32)   96          Block35_2_Branch_2_Conv2d_0a_1x1[\n","__________________________________________________________________________________________________\n","Block35_2_Branch_2_Conv2d_0a_1x (None, 25, 25, 32)   0           Block35_2_Branch_2_Conv2d_0a_1x1_\n","__________________________________________________________________________________________________\n","Block35_2_Branch_1_Conv2d_0a_1x (None, 25, 25, 32)   8192        Block35_1_Activation[0][0]       \n","__________________________________________________________________________________________________\n","Block35_2_Branch_2_Conv2d_0b_3x (None, 25, 25, 32)   9216        Block35_2_Branch_2_Conv2d_0a_1x1_\n","__________________________________________________________________________________________________\n","Block35_2_Branch_1_Conv2d_0a_1x (None, 25, 25, 32)   96          Block35_2_Branch_1_Conv2d_0a_1x1[\n","__________________________________________________________________________________________________\n","Block35_2_Branch_2_Conv2d_0b_3x (None, 25, 25, 32)   96          Block35_2_Branch_2_Conv2d_0b_3x3[\n","__________________________________________________________________________________________________\n","Block35_2_Branch_1_Conv2d_0a_1x (None, 25, 25, 32)   0           Block35_2_Branch_1_Conv2d_0a_1x1_\n","__________________________________________________________________________________________________\n","Block35_2_Branch_2_Conv2d_0b_3x (None, 25, 25, 32)   0           Block35_2_Branch_2_Conv2d_0b_3x3_\n","__________________________________________________________________________________________________\n","Block35_2_Branch_0_Conv2d_1x1 ( (None, 25, 25, 32)   8192        Block35_1_Activation[0][0]       \n","__________________________________________________________________________________________________\n","Block35_2_Branch_1_Conv2d_0b_3x (None, 25, 25, 32)   9216        Block35_2_Branch_1_Conv2d_0a_1x1_\n","__________________________________________________________________________________________________\n","Block35_2_Branch_2_Conv2d_0c_3x (None, 25, 25, 32)   9216        Block35_2_Branch_2_Conv2d_0b_3x3_\n","__________________________________________________________________________________________________\n","Block35_2_Branch_0_Conv2d_1x1_B (None, 25, 25, 32)   96          Block35_2_Branch_0_Conv2d_1x1[0][\n","__________________________________________________________________________________________________\n","Block35_2_Branch_1_Conv2d_0b_3x (None, 25, 25, 32)   96          Block35_2_Branch_1_Conv2d_0b_3x3[\n","__________________________________________________________________________________________________\n","Block35_2_Branch_2_Conv2d_0c_3x (None, 25, 25, 32)   96          Block35_2_Branch_2_Conv2d_0c_3x3[\n","__________________________________________________________________________________________________\n","Block35_2_Branch_0_Conv2d_1x1_A (None, 25, 25, 32)   0           Block35_2_Branch_0_Conv2d_1x1_Bat\n","__________________________________________________________________________________________________\n","Block35_2_Branch_1_Conv2d_0b_3x (None, 25, 25, 32)   0           Block35_2_Branch_1_Conv2d_0b_3x3_\n","__________________________________________________________________________________________________\n","Block35_2_Branch_2_Conv2d_0c_3x (None, 25, 25, 32)   0           Block35_2_Branch_2_Conv2d_0c_3x3_\n","__________________________________________________________________________________________________\n","Block35_2_Concatenate (Concaten (None, 25, 25, 96)   0           Block35_2_Branch_0_Conv2d_1x1_Act\n","                                                                 Block35_2_Branch_1_Conv2d_0b_3x3_\n","                                                                 Block35_2_Branch_2_Conv2d_0c_3x3_\n","__________________________________________________________________________________________________\n","Block35_2_Conv2d_1x1 (Conv2D)   (None, 25, 25, 256)  24832       Block35_2_Concatenate[0][0]      \n","__________________________________________________________________________________________________\n","lambda_1 (Lambda)               (None, 25, 25, 256)  0           Block35_2_Conv2d_1x1[0][0]       \n","__________________________________________________________________________________________________\n","add_1 (Add)                     (None, 25, 25, 256)  0           Block35_1_Activation[0][0]       \n","                                                                 lambda_1[0][0]                   \n","__________________________________________________________________________________________________\n","Block35_2_Activation (Activatio (None, 25, 25, 256)  0           add_1[0][0]                      \n","__________________________________________________________________________________________________\n","Block35_3_Branch_2_Conv2d_0a_1x (None, 25, 25, 32)   8192        Block35_2_Activation[0][0]       \n","__________________________________________________________________________________________________\n","Block35_3_Branch_2_Conv2d_0a_1x (None, 25, 25, 32)   96          Block35_3_Branch_2_Conv2d_0a_1x1[\n","__________________________________________________________________________________________________\n","Block35_3_Branch_2_Conv2d_0a_1x (None, 25, 25, 32)   0           Block35_3_Branch_2_Conv2d_0a_1x1_\n","__________________________________________________________________________________________________\n","Block35_3_Branch_1_Conv2d_0a_1x (None, 25, 25, 32)   8192        Block35_2_Activation[0][0]       \n","__________________________________________________________________________________________________\n","Block35_3_Branch_2_Conv2d_0b_3x (None, 25, 25, 32)   9216        Block35_3_Branch_2_Conv2d_0a_1x1_\n","__________________________________________________________________________________________________\n","Block35_3_Branch_1_Conv2d_0a_1x (None, 25, 25, 32)   96          Block35_3_Branch_1_Conv2d_0a_1x1[\n","__________________________________________________________________________________________________\n","Block35_3_Branch_2_Conv2d_0b_3x (None, 25, 25, 32)   96          Block35_3_Branch_2_Conv2d_0b_3x3[\n","__________________________________________________________________________________________________\n","Block35_3_Branch_1_Conv2d_0a_1x (None, 25, 25, 32)   0           Block35_3_Branch_1_Conv2d_0a_1x1_\n","__________________________________________________________________________________________________\n","Block35_3_Branch_2_Conv2d_0b_3x (None, 25, 25, 32)   0           Block35_3_Branch_2_Conv2d_0b_3x3_\n","__________________________________________________________________________________________________\n","Block35_3_Branch_0_Conv2d_1x1 ( (None, 25, 25, 32)   8192        Block35_2_Activation[0][0]       \n","__________________________________________________________________________________________________\n","Block35_3_Branch_1_Conv2d_0b_3x (None, 25, 25, 32)   9216        Block35_3_Branch_1_Conv2d_0a_1x1_\n","__________________________________________________________________________________________________\n","Block35_3_Branch_2_Conv2d_0c_3x (None, 25, 25, 32)   9216        Block35_3_Branch_2_Conv2d_0b_3x3_\n","__________________________________________________________________________________________________\n","Block35_3_Branch_0_Conv2d_1x1_B (None, 25, 25, 32)   96          Block35_3_Branch_0_Conv2d_1x1[0][\n","__________________________________________________________________________________________________\n","Block35_3_Branch_1_Conv2d_0b_3x (None, 25, 25, 32)   96          Block35_3_Branch_1_Conv2d_0b_3x3[\n","__________________________________________________________________________________________________\n","Block35_3_Branch_2_Conv2d_0c_3x (None, 25, 25, 32)   96          Block35_3_Branch_2_Conv2d_0c_3x3[\n","__________________________________________________________________________________________________\n","Block35_3_Branch_0_Conv2d_1x1_A (None, 25, 25, 32)   0           Block35_3_Branch_0_Conv2d_1x1_Bat\n","__________________________________________________________________________________________________\n","Block35_3_Branch_1_Conv2d_0b_3x (None, 25, 25, 32)   0           Block35_3_Branch_1_Conv2d_0b_3x3_\n","__________________________________________________________________________________________________\n","Block35_3_Branch_2_Conv2d_0c_3x (None, 25, 25, 32)   0           Block35_3_Branch_2_Conv2d_0c_3x3_\n","__________________________________________________________________________________________________\n","Block35_3_Concatenate (Concaten (None, 25, 25, 96)   0           Block35_3_Branch_0_Conv2d_1x1_Act\n","                                                                 Block35_3_Branch_1_Conv2d_0b_3x3_\n","                                                                 Block35_3_Branch_2_Conv2d_0c_3x3_\n","__________________________________________________________________________________________________\n","Block35_3_Conv2d_1x1 (Conv2D)   (None, 25, 25, 256)  24832       Block35_3_Concatenate[0][0]      \n","__________________________________________________________________________________________________\n","lambda_2 (Lambda)               (None, 25, 25, 256)  0           Block35_3_Conv2d_1x1[0][0]       \n","__________________________________________________________________________________________________\n","add_2 (Add)                     (None, 25, 25, 256)  0           Block35_2_Activation[0][0]       \n","                                                                 lambda_2[0][0]                   \n","__________________________________________________________________________________________________\n","Block35_3_Activation (Activatio (None, 25, 25, 256)  0           add_2[0][0]                      \n","__________________________________________________________________________________________________\n","Block35_4_Branch_2_Conv2d_0a_1x (None, 25, 25, 32)   8192        Block35_3_Activation[0][0]       \n","__________________________________________________________________________________________________\n","Block35_4_Branch_2_Conv2d_0a_1x (None, 25, 25, 32)   96          Block35_4_Branch_2_Conv2d_0a_1x1[\n","__________________________________________________________________________________________________\n","Block35_4_Branch_2_Conv2d_0a_1x (None, 25, 25, 32)   0           Block35_4_Branch_2_Conv2d_0a_1x1_\n","__________________________________________________________________________________________________\n","Block35_4_Branch_1_Conv2d_0a_1x (None, 25, 25, 32)   8192        Block35_3_Activation[0][0]       \n","__________________________________________________________________________________________________\n","Block35_4_Branch_2_Conv2d_0b_3x (None, 25, 25, 32)   9216        Block35_4_Branch_2_Conv2d_0a_1x1_\n","__________________________________________________________________________________________________\n","Block35_4_Branch_1_Conv2d_0a_1x (None, 25, 25, 32)   96          Block35_4_Branch_1_Conv2d_0a_1x1[\n","__________________________________________________________________________________________________\n","Block35_4_Branch_2_Conv2d_0b_3x (None, 25, 25, 32)   96          Block35_4_Branch_2_Conv2d_0b_3x3[\n","__________________________________________________________________________________________________\n","Block35_4_Branch_1_Conv2d_0a_1x (None, 25, 25, 32)   0           Block35_4_Branch_1_Conv2d_0a_1x1_\n","__________________________________________________________________________________________________\n","Block35_4_Branch_2_Conv2d_0b_3x (None, 25, 25, 32)   0           Block35_4_Branch_2_Conv2d_0b_3x3_\n","__________________________________________________________________________________________________\n","Block35_4_Branch_0_Conv2d_1x1 ( (None, 25, 25, 32)   8192        Block35_3_Activation[0][0]       \n","__________________________________________________________________________________________________\n","Block35_4_Branch_1_Conv2d_0b_3x (None, 25, 25, 32)   9216        Block35_4_Branch_1_Conv2d_0a_1x1_\n","__________________________________________________________________________________________________\n","Block35_4_Branch_2_Conv2d_0c_3x (None, 25, 25, 32)   9216        Block35_4_Branch_2_Conv2d_0b_3x3_\n","__________________________________________________________________________________________________\n","Block35_4_Branch_0_Conv2d_1x1_B (None, 25, 25, 32)   96          Block35_4_Branch_0_Conv2d_1x1[0][\n","__________________________________________________________________________________________________\n","Block35_4_Branch_1_Conv2d_0b_3x (None, 25, 25, 32)   96          Block35_4_Branch_1_Conv2d_0b_3x3[\n","__________________________________________________________________________________________________\n","Block35_4_Branch_2_Conv2d_0c_3x (None, 25, 25, 32)   96          Block35_4_Branch_2_Conv2d_0c_3x3[\n","__________________________________________________________________________________________________\n","Block35_4_Branch_0_Conv2d_1x1_A (None, 25, 25, 32)   0           Block35_4_Branch_0_Conv2d_1x1_Bat\n","__________________________________________________________________________________________________\n","Block35_4_Branch_1_Conv2d_0b_3x (None, 25, 25, 32)   0           Block35_4_Branch_1_Conv2d_0b_3x3_\n","__________________________________________________________________________________________________\n","Block35_4_Branch_2_Conv2d_0c_3x (None, 25, 25, 32)   0           Block35_4_Branch_2_Conv2d_0c_3x3_\n","__________________________________________________________________________________________________\n","Block35_4_Concatenate (Concaten (None, 25, 25, 96)   0           Block35_4_Branch_0_Conv2d_1x1_Act\n","                                                                 Block35_4_Branch_1_Conv2d_0b_3x3_\n","                                                                 Block35_4_Branch_2_Conv2d_0c_3x3_\n","__________________________________________________________________________________________________\n","Block35_4_Conv2d_1x1 (Conv2D)   (None, 25, 25, 256)  24832       Block35_4_Concatenate[0][0]      \n","__________________________________________________________________________________________________\n","lambda_3 (Lambda)               (None, 25, 25, 256)  0           Block35_4_Conv2d_1x1[0][0]       \n","__________________________________________________________________________________________________\n","add_3 (Add)                     (None, 25, 25, 256)  0           Block35_3_Activation[0][0]       \n","                                                                 lambda_3[0][0]                   \n","__________________________________________________________________________________________________\n","Block35_4_Activation (Activatio (None, 25, 25, 256)  0           add_3[0][0]                      \n","__________________________________________________________________________________________________\n","Block35_5_Branch_2_Conv2d_0a_1x (None, 25, 25, 32)   8192        Block35_4_Activation[0][0]       \n","__________________________________________________________________________________________________\n","Block35_5_Branch_2_Conv2d_0a_1x (None, 25, 25, 32)   96          Block35_5_Branch_2_Conv2d_0a_1x1[\n","__________________________________________________________________________________________________\n","Block35_5_Branch_2_Conv2d_0a_1x (None, 25, 25, 32)   0           Block35_5_Branch_2_Conv2d_0a_1x1_\n","__________________________________________________________________________________________________\n","Block35_5_Branch_1_Conv2d_0a_1x (None, 25, 25, 32)   8192        Block35_4_Activation[0][0]       \n","__________________________________________________________________________________________________\n","Block35_5_Branch_2_Conv2d_0b_3x (None, 25, 25, 32)   9216        Block35_5_Branch_2_Conv2d_0a_1x1_\n","__________________________________________________________________________________________________\n","Block35_5_Branch_1_Conv2d_0a_1x (None, 25, 25, 32)   96          Block35_5_Branch_1_Conv2d_0a_1x1[\n","__________________________________________________________________________________________________\n","Block35_5_Branch_2_Conv2d_0b_3x (None, 25, 25, 32)   96          Block35_5_Branch_2_Conv2d_0b_3x3[\n","__________________________________________________________________________________________________\n","Block35_5_Branch_1_Conv2d_0a_1x (None, 25, 25, 32)   0           Block35_5_Branch_1_Conv2d_0a_1x1_\n","__________________________________________________________________________________________________\n","Block35_5_Branch_2_Conv2d_0b_3x (None, 25, 25, 32)   0           Block35_5_Branch_2_Conv2d_0b_3x3_\n","__________________________________________________________________________________________________\n","Block35_5_Branch_0_Conv2d_1x1 ( (None, 25, 25, 32)   8192        Block35_4_Activation[0][0]       \n","__________________________________________________________________________________________________\n","Block35_5_Branch_1_Conv2d_0b_3x (None, 25, 25, 32)   9216        Block35_5_Branch_1_Conv2d_0a_1x1_\n","__________________________________________________________________________________________________\n","Block35_5_Branch_2_Conv2d_0c_3x (None, 25, 25, 32)   9216        Block35_5_Branch_2_Conv2d_0b_3x3_\n","__________________________________________________________________________________________________\n","Block35_5_Branch_0_Conv2d_1x1_B (None, 25, 25, 32)   96          Block35_5_Branch_0_Conv2d_1x1[0][\n","__________________________________________________________________________________________________\n","Block35_5_Branch_1_Conv2d_0b_3x (None, 25, 25, 32)   96          Block35_5_Branch_1_Conv2d_0b_3x3[\n","__________________________________________________________________________________________________\n","Block35_5_Branch_2_Conv2d_0c_3x (None, 25, 25, 32)   96          Block35_5_Branch_2_Conv2d_0c_3x3[\n","__________________________________________________________________________________________________\n","Block35_5_Branch_0_Conv2d_1x1_A (None, 25, 25, 32)   0           Block35_5_Branch_0_Conv2d_1x1_Bat\n","__________________________________________________________________________________________________\n","Block35_5_Branch_1_Conv2d_0b_3x (None, 25, 25, 32)   0           Block35_5_Branch_1_Conv2d_0b_3x3_\n","__________________________________________________________________________________________________\n","Block35_5_Branch_2_Conv2d_0c_3x (None, 25, 25, 32)   0           Block35_5_Branch_2_Conv2d_0c_3x3_\n","__________________________________________________________________________________________________\n","Block35_5_Concatenate (Concaten (None, 25, 25, 96)   0           Block35_5_Branch_0_Conv2d_1x1_Act\n","                                                                 Block35_5_Branch_1_Conv2d_0b_3x3_\n","                                                                 Block35_5_Branch_2_Conv2d_0c_3x3_\n","__________________________________________________________________________________________________\n","Block35_5_Conv2d_1x1 (Conv2D)   (None, 25, 25, 256)  24832       Block35_5_Concatenate[0][0]      \n","__________________________________________________________________________________________________\n","lambda_4 (Lambda)               (None, 25, 25, 256)  0           Block35_5_Conv2d_1x1[0][0]       \n","__________________________________________________________________________________________________\n","add_4 (Add)                     (None, 25, 25, 256)  0           Block35_4_Activation[0][0]       \n","                                                                 lambda_4[0][0]                   \n","__________________________________________________________________________________________________\n","Block35_5_Activation (Activatio (None, 25, 25, 256)  0           add_4[0][0]                      \n","__________________________________________________________________________________________________\n","Mixed_6a_Branch_1_Conv2d_0a_1x1 (None, 25, 25, 192)  49152       Block35_5_Activation[0][0]       \n","__________________________________________________________________________________________________\n","Mixed_6a_Branch_1_Conv2d_0a_1x1 (None, 25, 25, 192)  576         Mixed_6a_Branch_1_Conv2d_0a_1x1[0\n","__________________________________________________________________________________________________\n","Mixed_6a_Branch_1_Conv2d_0a_1x1 (None, 25, 25, 192)  0           Mixed_6a_Branch_1_Conv2d_0a_1x1_B\n","__________________________________________________________________________________________________\n","Mixed_6a_Branch_1_Conv2d_0b_3x3 (None, 25, 25, 192)  331776      Mixed_6a_Branch_1_Conv2d_0a_1x1_A\n","__________________________________________________________________________________________________\n","Mixed_6a_Branch_1_Conv2d_0b_3x3 (None, 25, 25, 192)  576         Mixed_6a_Branch_1_Conv2d_0b_3x3[0\n","__________________________________________________________________________________________________\n","Mixed_6a_Branch_1_Conv2d_0b_3x3 (None, 25, 25, 192)  0           Mixed_6a_Branch_1_Conv2d_0b_3x3_B\n","__________________________________________________________________________________________________\n","Mixed_6a_Branch_0_Conv2d_1a_3x3 (None, 12, 12, 384)  884736      Block35_5_Activation[0][0]       \n","__________________________________________________________________________________________________\n","Mixed_6a_Branch_1_Conv2d_1a_3x3 (None, 12, 12, 256)  442368      Mixed_6a_Branch_1_Conv2d_0b_3x3_A\n","__________________________________________________________________________________________________\n","Mixed_6a_Branch_0_Conv2d_1a_3x3 (None, 12, 12, 384)  1152        Mixed_6a_Branch_0_Conv2d_1a_3x3[0\n","__________________________________________________________________________________________________\n","Mixed_6a_Branch_1_Conv2d_1a_3x3 (None, 12, 12, 256)  768         Mixed_6a_Branch_1_Conv2d_1a_3x3[0\n","__________________________________________________________________________________________________\n","Mixed_6a_Branch_0_Conv2d_1a_3x3 (None, 12, 12, 384)  0           Mixed_6a_Branch_0_Conv2d_1a_3x3_B\n","__________________________________________________________________________________________________\n","Mixed_6a_Branch_1_Conv2d_1a_3x3 (None, 12, 12, 256)  0           Mixed_6a_Branch_1_Conv2d_1a_3x3_B\n","__________________________________________________________________________________________________\n","Mixed_6a_Branch_2_MaxPool_1a_3x (None, 12, 12, 256)  0           Block35_5_Activation[0][0]       \n","__________________________________________________________________________________________________\n","Mixed_6a (Concatenate)          (None, 12, 12, 896)  0           Mixed_6a_Branch_0_Conv2d_1a_3x3_A\n","                                                                 Mixed_6a_Branch_1_Conv2d_1a_3x3_A\n","                                                                 Mixed_6a_Branch_2_MaxPool_1a_3x3[\n","__________________________________________________________________________________________________\n","Block17_1_Branch_1_Conv2d_0a_1x (None, 12, 12, 128)  114688      Mixed_6a[0][0]                   \n","__________________________________________________________________________________________________\n","Block17_1_Branch_1_Conv2d_0a_1x (None, 12, 12, 128)  384         Block17_1_Branch_1_Conv2d_0a_1x1[\n","__________________________________________________________________________________________________\n","Block17_1_Branch_1_Conv2d_0a_1x (None, 12, 12, 128)  0           Block17_1_Branch_1_Conv2d_0a_1x1_\n","__________________________________________________________________________________________________\n","Block17_1_Branch_1_Conv2d_0b_1x (None, 12, 12, 128)  114688      Block17_1_Branch_1_Conv2d_0a_1x1_\n","__________________________________________________________________________________________________\n","Block17_1_Branch_1_Conv2d_0b_1x (None, 12, 12, 128)  384         Block17_1_Branch_1_Conv2d_0b_1x7[\n","__________________________________________________________________________________________________\n","Block17_1_Branch_1_Conv2d_0b_1x (None, 12, 12, 128)  0           Block17_1_Branch_1_Conv2d_0b_1x7_\n","__________________________________________________________________________________________________\n","Block17_1_Branch_0_Conv2d_1x1 ( (None, 12, 12, 128)  114688      Mixed_6a[0][0]                   \n","__________________________________________________________________________________________________\n","Block17_1_Branch_1_Conv2d_0c_7x (None, 12, 12, 128)  114688      Block17_1_Branch_1_Conv2d_0b_1x7_\n","__________________________________________________________________________________________________\n","Block17_1_Branch_0_Conv2d_1x1_B (None, 12, 12, 128)  384         Block17_1_Branch_0_Conv2d_1x1[0][\n","__________________________________________________________________________________________________\n","Block17_1_Branch_1_Conv2d_0c_7x (None, 12, 12, 128)  384         Block17_1_Branch_1_Conv2d_0c_7x1[\n","__________________________________________________________________________________________________\n","Block17_1_Branch_0_Conv2d_1x1_A (None, 12, 12, 128)  0           Block17_1_Branch_0_Conv2d_1x1_Bat\n","__________________________________________________________________________________________________\n","Block17_1_Branch_1_Conv2d_0c_7x (None, 12, 12, 128)  0           Block17_1_Branch_1_Conv2d_0c_7x1_\n","__________________________________________________________________________________________________\n","Block17_1_Concatenate (Concaten (None, 12, 12, 256)  0           Block17_1_Branch_0_Conv2d_1x1_Act\n","                                                                 Block17_1_Branch_1_Conv2d_0c_7x1_\n","__________________________________________________________________________________________________\n","Block17_1_Conv2d_1x1 (Conv2D)   (None, 12, 12, 896)  230272      Block17_1_Concatenate[0][0]      \n","__________________________________________________________________________________________________\n","lambda_5 (Lambda)               (None, 12, 12, 896)  0           Block17_1_Conv2d_1x1[0][0]       \n","__________________________________________________________________________________________________\n","add_5 (Add)                     (None, 12, 12, 896)  0           Mixed_6a[0][0]                   \n","                                                                 lambda_5[0][0]                   \n","__________________________________________________________________________________________________\n","Block17_1_Activation (Activatio (None, 12, 12, 896)  0           add_5[0][0]                      \n","__________________________________________________________________________________________________\n","Block17_2_Branch_1_Conv2d_0a_1x (None, 12, 12, 128)  114688      Block17_1_Activation[0][0]       \n","__________________________________________________________________________________________________\n","Block17_2_Branch_1_Conv2d_0a_1x (None, 12, 12, 128)  384         Block17_2_Branch_1_Conv2d_0a_1x1[\n","__________________________________________________________________________________________________\n","Block17_2_Branch_1_Conv2d_0a_1x (None, 12, 12, 128)  0           Block17_2_Branch_1_Conv2d_0a_1x1_\n","__________________________________________________________________________________________________\n","Block17_2_Branch_1_Conv2d_0b_1x (None, 12, 12, 128)  114688      Block17_2_Branch_1_Conv2d_0a_1x1_\n","__________________________________________________________________________________________________\n","Block17_2_Branch_1_Conv2d_0b_1x (None, 12, 12, 128)  384         Block17_2_Branch_1_Conv2d_0b_1x7[\n","__________________________________________________________________________________________________\n","Block17_2_Branch_1_Conv2d_0b_1x (None, 12, 12, 128)  0           Block17_2_Branch_1_Conv2d_0b_1x7_\n","__________________________________________________________________________________________________\n","Block17_2_Branch_0_Conv2d_1x1 ( (None, 12, 12, 128)  114688      Block17_1_Activation[0][0]       \n","__________________________________________________________________________________________________\n","Block17_2_Branch_1_Conv2d_0c_7x (None, 12, 12, 128)  114688      Block17_2_Branch_1_Conv2d_0b_1x7_\n","__________________________________________________________________________________________________\n","Block17_2_Branch_0_Conv2d_1x1_B (None, 12, 12, 128)  384         Block17_2_Branch_0_Conv2d_1x1[0][\n","__________________________________________________________________________________________________\n","Block17_2_Branch_1_Conv2d_0c_7x (None, 12, 12, 128)  384         Block17_2_Branch_1_Conv2d_0c_7x1[\n","__________________________________________________________________________________________________\n","Block17_2_Branch_0_Conv2d_1x1_A (None, 12, 12, 128)  0           Block17_2_Branch_0_Conv2d_1x1_Bat\n","__________________________________________________________________________________________________\n","Block17_2_Branch_1_Conv2d_0c_7x (None, 12, 12, 128)  0           Block17_2_Branch_1_Conv2d_0c_7x1_\n","__________________________________________________________________________________________________\n","Block17_2_Concatenate (Concaten (None, 12, 12, 256)  0           Block17_2_Branch_0_Conv2d_1x1_Act\n","                                                                 Block17_2_Branch_1_Conv2d_0c_7x1_\n","__________________________________________________________________________________________________\n","Block17_2_Conv2d_1x1 (Conv2D)   (None, 12, 12, 896)  230272      Block17_2_Concatenate[0][0]      \n","__________________________________________________________________________________________________\n","lambda_6 (Lambda)               (None, 12, 12, 896)  0           Block17_2_Conv2d_1x1[0][0]       \n","__________________________________________________________________________________________________\n","add_6 (Add)                     (None, 12, 12, 896)  0           Block17_1_Activation[0][0]       \n","                                                                 lambda_6[0][0]                   \n","__________________________________________________________________________________________________\n","Block17_2_Activation (Activatio (None, 12, 12, 896)  0           add_6[0][0]                      \n","__________________________________________________________________________________________________\n","Block17_3_Branch_1_Conv2d_0a_1x (None, 12, 12, 128)  114688      Block17_2_Activation[0][0]       \n","__________________________________________________________________________________________________\n","Block17_3_Branch_1_Conv2d_0a_1x (None, 12, 12, 128)  384         Block17_3_Branch_1_Conv2d_0a_1x1[\n","__________________________________________________________________________________________________\n","Block17_3_Branch_1_Conv2d_0a_1x (None, 12, 12, 128)  0           Block17_3_Branch_1_Conv2d_0a_1x1_\n","__________________________________________________________________________________________________\n","Block17_3_Branch_1_Conv2d_0b_1x (None, 12, 12, 128)  114688      Block17_3_Branch_1_Conv2d_0a_1x1_\n","__________________________________________________________________________________________________\n","Block17_3_Branch_1_Conv2d_0b_1x (None, 12, 12, 128)  384         Block17_3_Branch_1_Conv2d_0b_1x7[\n","__________________________________________________________________________________________________\n","Block17_3_Branch_1_Conv2d_0b_1x (None, 12, 12, 128)  0           Block17_3_Branch_1_Conv2d_0b_1x7_\n","__________________________________________________________________________________________________\n","Block17_3_Branch_0_Conv2d_1x1 ( (None, 12, 12, 128)  114688      Block17_2_Activation[0][0]       \n","__________________________________________________________________________________________________\n","Block17_3_Branch_1_Conv2d_0c_7x (None, 12, 12, 128)  114688      Block17_3_Branch_1_Conv2d_0b_1x7_\n","__________________________________________________________________________________________________\n","Block17_3_Branch_0_Conv2d_1x1_B (None, 12, 12, 128)  384         Block17_3_Branch_0_Conv2d_1x1[0][\n","__________________________________________________________________________________________________\n","Block17_3_Branch_1_Conv2d_0c_7x (None, 12, 12, 128)  384         Block17_3_Branch_1_Conv2d_0c_7x1[\n","__________________________________________________________________________________________________\n","Block17_3_Branch_0_Conv2d_1x1_A (None, 12, 12, 128)  0           Block17_3_Branch_0_Conv2d_1x1_Bat\n","__________________________________________________________________________________________________\n","Block17_3_Branch_1_Conv2d_0c_7x (None, 12, 12, 128)  0           Block17_3_Branch_1_Conv2d_0c_7x1_\n","__________________________________________________________________________________________________\n","Block17_3_Concatenate (Concaten (None, 12, 12, 256)  0           Block17_3_Branch_0_Conv2d_1x1_Act\n","                                                                 Block17_3_Branch_1_Conv2d_0c_7x1_\n","__________________________________________________________________________________________________\n","Block17_3_Conv2d_1x1 (Conv2D)   (None, 12, 12, 896)  230272      Block17_3_Concatenate[0][0]      \n","__________________________________________________________________________________________________\n","lambda_7 (Lambda)               (None, 12, 12, 896)  0           Block17_3_Conv2d_1x1[0][0]       \n","__________________________________________________________________________________________________\n","add_7 (Add)                     (None, 12, 12, 896)  0           Block17_2_Activation[0][0]       \n","                                                                 lambda_7[0][0]                   \n","__________________________________________________________________________________________________\n","Block17_3_Activation (Activatio (None, 12, 12, 896)  0           add_7[0][0]                      \n","__________________________________________________________________________________________________\n","Block17_4_Branch_1_Conv2d_0a_1x (None, 12, 12, 128)  114688      Block17_3_Activation[0][0]       \n","__________________________________________________________________________________________________\n","Block17_4_Branch_1_Conv2d_0a_1x (None, 12, 12, 128)  384         Block17_4_Branch_1_Conv2d_0a_1x1[\n","__________________________________________________________________________________________________\n","Block17_4_Branch_1_Conv2d_0a_1x (None, 12, 12, 128)  0           Block17_4_Branch_1_Conv2d_0a_1x1_\n","__________________________________________________________________________________________________\n","Block17_4_Branch_1_Conv2d_0b_1x (None, 12, 12, 128)  114688      Block17_4_Branch_1_Conv2d_0a_1x1_\n","__________________________________________________________________________________________________\n","Block17_4_Branch_1_Conv2d_0b_1x (None, 12, 12, 128)  384         Block17_4_Branch_1_Conv2d_0b_1x7[\n","__________________________________________________________________________________________________\n","Block17_4_Branch_1_Conv2d_0b_1x (None, 12, 12, 128)  0           Block17_4_Branch_1_Conv2d_0b_1x7_\n","__________________________________________________________________________________________________\n","Block17_4_Branch_0_Conv2d_1x1 ( (None, 12, 12, 128)  114688      Block17_3_Activation[0][0]       \n","__________________________________________________________________________________________________\n","Block17_4_Branch_1_Conv2d_0c_7x (None, 12, 12, 128)  114688      Block17_4_Branch_1_Conv2d_0b_1x7_\n","__________________________________________________________________________________________________\n","Block17_4_Branch_0_Conv2d_1x1_B (None, 12, 12, 128)  384         Block17_4_Branch_0_Conv2d_1x1[0][\n","__________________________________________________________________________________________________\n","Block17_4_Branch_1_Conv2d_0c_7x (None, 12, 12, 128)  384         Block17_4_Branch_1_Conv2d_0c_7x1[\n","__________________________________________________________________________________________________\n","Block17_4_Branch_0_Conv2d_1x1_A (None, 12, 12, 128)  0           Block17_4_Branch_0_Conv2d_1x1_Bat\n","__________________________________________________________________________________________________\n","Block17_4_Branch_1_Conv2d_0c_7x (None, 12, 12, 128)  0           Block17_4_Branch_1_Conv2d_0c_7x1_\n","__________________________________________________________________________________________________\n","Block17_4_Concatenate (Concaten (None, 12, 12, 256)  0           Block17_4_Branch_0_Conv2d_1x1_Act\n","                                                                 Block17_4_Branch_1_Conv2d_0c_7x1_\n","__________________________________________________________________________________________________\n","Block17_4_Conv2d_1x1 (Conv2D)   (None, 12, 12, 896)  230272      Block17_4_Concatenate[0][0]      \n","__________________________________________________________________________________________________\n","lambda_8 (Lambda)               (None, 12, 12, 896)  0           Block17_4_Conv2d_1x1[0][0]       \n","__________________________________________________________________________________________________\n","add_8 (Add)                     (None, 12, 12, 896)  0           Block17_3_Activation[0][0]       \n","                                                                 lambda_8[0][0]                   \n","__________________________________________________________________________________________________\n","Block17_4_Activation (Activatio (None, 12, 12, 896)  0           add_8[0][0]                      \n","__________________________________________________________________________________________________\n","Block17_5_Branch_1_Conv2d_0a_1x (None, 12, 12, 128)  114688      Block17_4_Activation[0][0]       \n","__________________________________________________________________________________________________\n","Block17_5_Branch_1_Conv2d_0a_1x (None, 12, 12, 128)  384         Block17_5_Branch_1_Conv2d_0a_1x1[\n","__________________________________________________________________________________________________\n","Block17_5_Branch_1_Conv2d_0a_1x (None, 12, 12, 128)  0           Block17_5_Branch_1_Conv2d_0a_1x1_\n","__________________________________________________________________________________________________\n","Block17_5_Branch_1_Conv2d_0b_1x (None, 12, 12, 128)  114688      Block17_5_Branch_1_Conv2d_0a_1x1_\n","__________________________________________________________________________________________________\n","Block17_5_Branch_1_Conv2d_0b_1x (None, 12, 12, 128)  384         Block17_5_Branch_1_Conv2d_0b_1x7[\n","__________________________________________________________________________________________________\n","Block17_5_Branch_1_Conv2d_0b_1x (None, 12, 12, 128)  0           Block17_5_Branch_1_Conv2d_0b_1x7_\n","__________________________________________________________________________________________________\n","Block17_5_Branch_0_Conv2d_1x1 ( (None, 12, 12, 128)  114688      Block17_4_Activation[0][0]       \n","__________________________________________________________________________________________________\n","Block17_5_Branch_1_Conv2d_0c_7x (None, 12, 12, 128)  114688      Block17_5_Branch_1_Conv2d_0b_1x7_\n","__________________________________________________________________________________________________\n","Block17_5_Branch_0_Conv2d_1x1_B (None, 12, 12, 128)  384         Block17_5_Branch_0_Conv2d_1x1[0][\n","__________________________________________________________________________________________________\n","Block17_5_Branch_1_Conv2d_0c_7x (None, 12, 12, 128)  384         Block17_5_Branch_1_Conv2d_0c_7x1[\n","__________________________________________________________________________________________________\n","Block17_5_Branch_0_Conv2d_1x1_A (None, 12, 12, 128)  0           Block17_5_Branch_0_Conv2d_1x1_Bat\n","__________________________________________________________________________________________________\n","Block17_5_Branch_1_Conv2d_0c_7x (None, 12, 12, 128)  0           Block17_5_Branch_1_Conv2d_0c_7x1_\n","__________________________________________________________________________________________________\n","Block17_5_Concatenate (Concaten (None, 12, 12, 256)  0           Block17_5_Branch_0_Conv2d_1x1_Act\n","                                                                 Block17_5_Branch_1_Conv2d_0c_7x1_\n","__________________________________________________________________________________________________\n","Block17_5_Conv2d_1x1 (Conv2D)   (None, 12, 12, 896)  230272      Block17_5_Concatenate[0][0]      \n","__________________________________________________________________________________________________\n","lambda_9 (Lambda)               (None, 12, 12, 896)  0           Block17_5_Conv2d_1x1[0][0]       \n","__________________________________________________________________________________________________\n","add_9 (Add)                     (None, 12, 12, 896)  0           Block17_4_Activation[0][0]       \n","                                                                 lambda_9[0][0]                   \n","__________________________________________________________________________________________________\n","Block17_5_Activation (Activatio (None, 12, 12, 896)  0           add_9[0][0]                      \n","__________________________________________________________________________________________________\n","Block17_6_Branch_1_Conv2d_0a_1x (None, 12, 12, 128)  114688      Block17_5_Activation[0][0]       \n","__________________________________________________________________________________________________\n","Block17_6_Branch_1_Conv2d_0a_1x (None, 12, 12, 128)  384         Block17_6_Branch_1_Conv2d_0a_1x1[\n","__________________________________________________________________________________________________\n","Block17_6_Branch_1_Conv2d_0a_1x (None, 12, 12, 128)  0           Block17_6_Branch_1_Conv2d_0a_1x1_\n","__________________________________________________________________________________________________\n","Block17_6_Branch_1_Conv2d_0b_1x (None, 12, 12, 128)  114688      Block17_6_Branch_1_Conv2d_0a_1x1_\n","__________________________________________________________________________________________________\n","Block17_6_Branch_1_Conv2d_0b_1x (None, 12, 12, 128)  384         Block17_6_Branch_1_Conv2d_0b_1x7[\n","__________________________________________________________________________________________________\n","Block17_6_Branch_1_Conv2d_0b_1x (None, 12, 12, 128)  0           Block17_6_Branch_1_Conv2d_0b_1x7_\n","__________________________________________________________________________________________________\n","Block17_6_Branch_0_Conv2d_1x1 ( (None, 12, 12, 128)  114688      Block17_5_Activation[0][0]       \n","__________________________________________________________________________________________________\n","Block17_6_Branch_1_Conv2d_0c_7x (None, 12, 12, 128)  114688      Block17_6_Branch_1_Conv2d_0b_1x7_\n","__________________________________________________________________________________________________\n","Block17_6_Branch_0_Conv2d_1x1_B (None, 12, 12, 128)  384         Block17_6_Branch_0_Conv2d_1x1[0][\n","__________________________________________________________________________________________________\n","Block17_6_Branch_1_Conv2d_0c_7x (None, 12, 12, 128)  384         Block17_6_Branch_1_Conv2d_0c_7x1[\n","__________________________________________________________________________________________________\n","Block17_6_Branch_0_Conv2d_1x1_A (None, 12, 12, 128)  0           Block17_6_Branch_0_Conv2d_1x1_Bat\n","__________________________________________________________________________________________________\n","Block17_6_Branch_1_Conv2d_0c_7x (None, 12, 12, 128)  0           Block17_6_Branch_1_Conv2d_0c_7x1_\n","__________________________________________________________________________________________________\n","Block17_6_Concatenate (Concaten (None, 12, 12, 256)  0           Block17_6_Branch_0_Conv2d_1x1_Act\n","                                                                 Block17_6_Branch_1_Conv2d_0c_7x1_\n","__________________________________________________________________________________________________\n","Block17_6_Conv2d_1x1 (Conv2D)   (None, 12, 12, 896)  230272      Block17_6_Concatenate[0][0]      \n","__________________________________________________________________________________________________\n","lambda_10 (Lambda)              (None, 12, 12, 896)  0           Block17_6_Conv2d_1x1[0][0]       \n","__________________________________________________________________________________________________\n","add_10 (Add)                    (None, 12, 12, 896)  0           Block17_5_Activation[0][0]       \n","                                                                 lambda_10[0][0]                  \n","__________________________________________________________________________________________________\n","Block17_6_Activation (Activatio (None, 12, 12, 896)  0           add_10[0][0]                     \n","__________________________________________________________________________________________________\n","Block17_7_Branch_1_Conv2d_0a_1x (None, 12, 12, 128)  114688      Block17_6_Activation[0][0]       \n","__________________________________________________________________________________________________\n","Block17_7_Branch_1_Conv2d_0a_1x (None, 12, 12, 128)  384         Block17_7_Branch_1_Conv2d_0a_1x1[\n","__________________________________________________________________________________________________\n","Block17_7_Branch_1_Conv2d_0a_1x (None, 12, 12, 128)  0           Block17_7_Branch_1_Conv2d_0a_1x1_\n","__________________________________________________________________________________________________\n","Block17_7_Branch_1_Conv2d_0b_1x (None, 12, 12, 128)  114688      Block17_7_Branch_1_Conv2d_0a_1x1_\n","__________________________________________________________________________________________________\n","Block17_7_Branch_1_Conv2d_0b_1x (None, 12, 12, 128)  384         Block17_7_Branch_1_Conv2d_0b_1x7[\n","__________________________________________________________________________________________________\n","Block17_7_Branch_1_Conv2d_0b_1x (None, 12, 12, 128)  0           Block17_7_Branch_1_Conv2d_0b_1x7_\n","__________________________________________________________________________________________________\n","Block17_7_Branch_0_Conv2d_1x1 ( (None, 12, 12, 128)  114688      Block17_6_Activation[0][0]       \n","__________________________________________________________________________________________________\n","Block17_7_Branch_1_Conv2d_0c_7x (None, 12, 12, 128)  114688      Block17_7_Branch_1_Conv2d_0b_1x7_\n","__________________________________________________________________________________________________\n","Block17_7_Branch_0_Conv2d_1x1_B (None, 12, 12, 128)  384         Block17_7_Branch_0_Conv2d_1x1[0][\n","__________________________________________________________________________________________________\n","Block17_7_Branch_1_Conv2d_0c_7x (None, 12, 12, 128)  384         Block17_7_Branch_1_Conv2d_0c_7x1[\n","__________________________________________________________________________________________________\n","Block17_7_Branch_0_Conv2d_1x1_A (None, 12, 12, 128)  0           Block17_7_Branch_0_Conv2d_1x1_Bat\n","__________________________________________________________________________________________________\n","Block17_7_Branch_1_Conv2d_0c_7x (None, 12, 12, 128)  0           Block17_7_Branch_1_Conv2d_0c_7x1_\n","__________________________________________________________________________________________________\n","Block17_7_Concatenate (Concaten (None, 12, 12, 256)  0           Block17_7_Branch_0_Conv2d_1x1_Act\n","                                                                 Block17_7_Branch_1_Conv2d_0c_7x1_\n","__________________________________________________________________________________________________\n","Block17_7_Conv2d_1x1 (Conv2D)   (None, 12, 12, 896)  230272      Block17_7_Concatenate[0][0]      \n","__________________________________________________________________________________________________\n","lambda_11 (Lambda)              (None, 12, 12, 896)  0           Block17_7_Conv2d_1x1[0][0]       \n","__________________________________________________________________________________________________\n","add_11 (Add)                    (None, 12, 12, 896)  0           Block17_6_Activation[0][0]       \n","                                                                 lambda_11[0][0]                  \n","__________________________________________________________________________________________________\n","Block17_7_Activation (Activatio (None, 12, 12, 896)  0           add_11[0][0]                     \n","__________________________________________________________________________________________________\n","Block17_8_Branch_1_Conv2d_0a_1x (None, 12, 12, 128)  114688      Block17_7_Activation[0][0]       \n","__________________________________________________________________________________________________\n","Block17_8_Branch_1_Conv2d_0a_1x (None, 12, 12, 128)  384         Block17_8_Branch_1_Conv2d_0a_1x1[\n","__________________________________________________________________________________________________\n","Block17_8_Branch_1_Conv2d_0a_1x (None, 12, 12, 128)  0           Block17_8_Branch_1_Conv2d_0a_1x1_\n","__________________________________________________________________________________________________\n","Block17_8_Branch_1_Conv2d_0b_1x (None, 12, 12, 128)  114688      Block17_8_Branch_1_Conv2d_0a_1x1_\n","__________________________________________________________________________________________________\n","Block17_8_Branch_1_Conv2d_0b_1x (None, 12, 12, 128)  384         Block17_8_Branch_1_Conv2d_0b_1x7[\n","__________________________________________________________________________________________________\n","Block17_8_Branch_1_Conv2d_0b_1x (None, 12, 12, 128)  0           Block17_8_Branch_1_Conv2d_0b_1x7_\n","__________________________________________________________________________________________________\n","Block17_8_Branch_0_Conv2d_1x1 ( (None, 12, 12, 128)  114688      Block17_7_Activation[0][0]       \n","__________________________________________________________________________________________________\n","Block17_8_Branch_1_Conv2d_0c_7x (None, 12, 12, 128)  114688      Block17_8_Branch_1_Conv2d_0b_1x7_\n","__________________________________________________________________________________________________\n","Block17_8_Branch_0_Conv2d_1x1_B (None, 12, 12, 128)  384         Block17_8_Branch_0_Conv2d_1x1[0][\n","__________________________________________________________________________________________________\n","Block17_8_Branch_1_Conv2d_0c_7x (None, 12, 12, 128)  384         Block17_8_Branch_1_Conv2d_0c_7x1[\n","__________________________________________________________________________________________________\n","Block17_8_Branch_0_Conv2d_1x1_A (None, 12, 12, 128)  0           Block17_8_Branch_0_Conv2d_1x1_Bat\n","__________________________________________________________________________________________________\n","Block17_8_Branch_1_Conv2d_0c_7x (None, 12, 12, 128)  0           Block17_8_Branch_1_Conv2d_0c_7x1_\n","__________________________________________________________________________________________________\n","Block17_8_Concatenate (Concaten (None, 12, 12, 256)  0           Block17_8_Branch_0_Conv2d_1x1_Act\n","                                                                 Block17_8_Branch_1_Conv2d_0c_7x1_\n","__________________________________________________________________________________________________\n","Block17_8_Conv2d_1x1 (Conv2D)   (None, 12, 12, 896)  230272      Block17_8_Concatenate[0][0]      \n","__________________________________________________________________________________________________\n","lambda_12 (Lambda)              (None, 12, 12, 896)  0           Block17_8_Conv2d_1x1[0][0]       \n","__________________________________________________________________________________________________\n","add_12 (Add)                    (None, 12, 12, 896)  0           Block17_7_Activation[0][0]       \n","                                                                 lambda_12[0][0]                  \n","__________________________________________________________________________________________________\n","Block17_8_Activation (Activatio (None, 12, 12, 896)  0           add_12[0][0]                     \n","__________________________________________________________________________________________________\n","Block17_9_Branch_1_Conv2d_0a_1x (None, 12, 12, 128)  114688      Block17_8_Activation[0][0]       \n","__________________________________________________________________________________________________\n","Block17_9_Branch_1_Conv2d_0a_1x (None, 12, 12, 128)  384         Block17_9_Branch_1_Conv2d_0a_1x1[\n","__________________________________________________________________________________________________\n","Block17_9_Branch_1_Conv2d_0a_1x (None, 12, 12, 128)  0           Block17_9_Branch_1_Conv2d_0a_1x1_\n","__________________________________________________________________________________________________\n","Block17_9_Branch_1_Conv2d_0b_1x (None, 12, 12, 128)  114688      Block17_9_Branch_1_Conv2d_0a_1x1_\n","__________________________________________________________________________________________________\n","Block17_9_Branch_1_Conv2d_0b_1x (None, 12, 12, 128)  384         Block17_9_Branch_1_Conv2d_0b_1x7[\n","__________________________________________________________________________________________________\n","Block17_9_Branch_1_Conv2d_0b_1x (None, 12, 12, 128)  0           Block17_9_Branch_1_Conv2d_0b_1x7_\n","__________________________________________________________________________________________________\n","Block17_9_Branch_0_Conv2d_1x1 ( (None, 12, 12, 128)  114688      Block17_8_Activation[0][0]       \n","__________________________________________________________________________________________________\n","Block17_9_Branch_1_Conv2d_0c_7x (None, 12, 12, 128)  114688      Block17_9_Branch_1_Conv2d_0b_1x7_\n","__________________________________________________________________________________________________\n","Block17_9_Branch_0_Conv2d_1x1_B (None, 12, 12, 128)  384         Block17_9_Branch_0_Conv2d_1x1[0][\n","__________________________________________________________________________________________________\n","Block17_9_Branch_1_Conv2d_0c_7x (None, 12, 12, 128)  384         Block17_9_Branch_1_Conv2d_0c_7x1[\n","__________________________________________________________________________________________________\n","Block17_9_Branch_0_Conv2d_1x1_A (None, 12, 12, 128)  0           Block17_9_Branch_0_Conv2d_1x1_Bat\n","__________________________________________________________________________________________________\n","Block17_9_Branch_1_Conv2d_0c_7x (None, 12, 12, 128)  0           Block17_9_Branch_1_Conv2d_0c_7x1_\n","__________________________________________________________________________________________________\n","Block17_9_Concatenate (Concaten (None, 12, 12, 256)  0           Block17_9_Branch_0_Conv2d_1x1_Act\n","                                                                 Block17_9_Branch_1_Conv2d_0c_7x1_\n","__________________________________________________________________________________________________\n","Block17_9_Conv2d_1x1 (Conv2D)   (None, 12, 12, 896)  230272      Block17_9_Concatenate[0][0]      \n","__________________________________________________________________________________________________\n","lambda_13 (Lambda)              (None, 12, 12, 896)  0           Block17_9_Conv2d_1x1[0][0]       \n","__________________________________________________________________________________________________\n","add_13 (Add)                    (None, 12, 12, 896)  0           Block17_8_Activation[0][0]       \n","                                                                 lambda_13[0][0]                  \n","__________________________________________________________________________________________________\n","Block17_9_Activation (Activatio (None, 12, 12, 896)  0           add_13[0][0]                     \n","__________________________________________________________________________________________________\n","Block17_10_Branch_1_Conv2d_0a_1 (None, 12, 12, 128)  114688      Block17_9_Activation[0][0]       \n","__________________________________________________________________________________________________\n","Block17_10_Branch_1_Conv2d_0a_1 (None, 12, 12, 128)  384         Block17_10_Branch_1_Conv2d_0a_1x1\n","__________________________________________________________________________________________________\n","Block17_10_Branch_1_Conv2d_0a_1 (None, 12, 12, 128)  0           Block17_10_Branch_1_Conv2d_0a_1x1\n","__________________________________________________________________________________________________\n","Block17_10_Branch_1_Conv2d_0b_1 (None, 12, 12, 128)  114688      Block17_10_Branch_1_Conv2d_0a_1x1\n","__________________________________________________________________________________________________\n","Block17_10_Branch_1_Conv2d_0b_1 (None, 12, 12, 128)  384         Block17_10_Branch_1_Conv2d_0b_1x7\n","__________________________________________________________________________________________________\n","Block17_10_Branch_1_Conv2d_0b_1 (None, 12, 12, 128)  0           Block17_10_Branch_1_Conv2d_0b_1x7\n","__________________________________________________________________________________________________\n","Block17_10_Branch_0_Conv2d_1x1  (None, 12, 12, 128)  114688      Block17_9_Activation[0][0]       \n","__________________________________________________________________________________________________\n","Block17_10_Branch_1_Conv2d_0c_7 (None, 12, 12, 128)  114688      Block17_10_Branch_1_Conv2d_0b_1x7\n","__________________________________________________________________________________________________\n","Block17_10_Branch_0_Conv2d_1x1_ (None, 12, 12, 128)  384         Block17_10_Branch_0_Conv2d_1x1[0]\n","__________________________________________________________________________________________________\n","Block17_10_Branch_1_Conv2d_0c_7 (None, 12, 12, 128)  384         Block17_10_Branch_1_Conv2d_0c_7x1\n","__________________________________________________________________________________________________\n","Block17_10_Branch_0_Conv2d_1x1_ (None, 12, 12, 128)  0           Block17_10_Branch_0_Conv2d_1x1_Ba\n","__________________________________________________________________________________________________\n","Block17_10_Branch_1_Conv2d_0c_7 (None, 12, 12, 128)  0           Block17_10_Branch_1_Conv2d_0c_7x1\n","__________________________________________________________________________________________________\n","Block17_10_Concatenate (Concate (None, 12, 12, 256)  0           Block17_10_Branch_0_Conv2d_1x1_Ac\n","                                                                 Block17_10_Branch_1_Conv2d_0c_7x1\n","__________________________________________________________________________________________________\n","Block17_10_Conv2d_1x1 (Conv2D)  (None, 12, 12, 896)  230272      Block17_10_Concatenate[0][0]     \n","__________________________________________________________________________________________________\n","lambda_14 (Lambda)              (None, 12, 12, 896)  0           Block17_10_Conv2d_1x1[0][0]      \n","__________________________________________________________________________________________________\n","add_14 (Add)                    (None, 12, 12, 896)  0           Block17_9_Activation[0][0]       \n","                                                                 lambda_14[0][0]                  \n","__________________________________________________________________________________________________\n","Block17_10_Activation (Activati (None, 12, 12, 896)  0           add_14[0][0]                     \n","__________________________________________________________________________________________________\n","Mixed_7a_Branch_2_Conv2d_0a_1x1 (None, 12, 12, 256)  229376      Block17_10_Activation[0][0]      \n","__________________________________________________________________________________________________\n","Mixed_7a_Branch_2_Conv2d_0a_1x1 (None, 12, 12, 256)  768         Mixed_7a_Branch_2_Conv2d_0a_1x1[0\n","__________________________________________________________________________________________________\n","Mixed_7a_Branch_2_Conv2d_0a_1x1 (None, 12, 12, 256)  0           Mixed_7a_Branch_2_Conv2d_0a_1x1_B\n","__________________________________________________________________________________________________\n","Mixed_7a_Branch_0_Conv2d_0a_1x1 (None, 12, 12, 256)  229376      Block17_10_Activation[0][0]      \n","__________________________________________________________________________________________________\n","Mixed_7a_Branch_1_Conv2d_0a_1x1 (None, 12, 12, 256)  229376      Block17_10_Activation[0][0]      \n","__________________________________________________________________________________________________\n","Mixed_7a_Branch_2_Conv2d_0b_3x3 (None, 12, 12, 256)  589824      Mixed_7a_Branch_2_Conv2d_0a_1x1_A\n","__________________________________________________________________________________________________\n","Mixed_7a_Branch_0_Conv2d_0a_1x1 (None, 12, 12, 256)  768         Mixed_7a_Branch_0_Conv2d_0a_1x1[0\n","__________________________________________________________________________________________________\n","Mixed_7a_Branch_1_Conv2d_0a_1x1 (None, 12, 12, 256)  768         Mixed_7a_Branch_1_Conv2d_0a_1x1[0\n","__________________________________________________________________________________________________\n","Mixed_7a_Branch_2_Conv2d_0b_3x3 (None, 12, 12, 256)  768         Mixed_7a_Branch_2_Conv2d_0b_3x3[0\n","__________________________________________________________________________________________________\n","Mixed_7a_Branch_0_Conv2d_0a_1x1 (None, 12, 12, 256)  0           Mixed_7a_Branch_0_Conv2d_0a_1x1_B\n","__________________________________________________________________________________________________\n","Mixed_7a_Branch_1_Conv2d_0a_1x1 (None, 12, 12, 256)  0           Mixed_7a_Branch_1_Conv2d_0a_1x1_B\n","__________________________________________________________________________________________________\n","Mixed_7a_Branch_2_Conv2d_0b_3x3 (None, 12, 12, 256)  0           Mixed_7a_Branch_2_Conv2d_0b_3x3_B\n","__________________________________________________________________________________________________\n","Mixed_7a_Branch_0_Conv2d_1a_3x3 (None, 5, 5, 384)    884736      Mixed_7a_Branch_0_Conv2d_0a_1x1_A\n","__________________________________________________________________________________________________\n","Mixed_7a_Branch_1_Conv2d_1a_3x3 (None, 5, 5, 256)    589824      Mixed_7a_Branch_1_Conv2d_0a_1x1_A\n","__________________________________________________________________________________________________\n","Mixed_7a_Branch_2_Conv2d_1a_3x3 (None, 5, 5, 256)    589824      Mixed_7a_Branch_2_Conv2d_0b_3x3_A\n","__________________________________________________________________________________________________\n","Mixed_7a_Branch_0_Conv2d_1a_3x3 (None, 5, 5, 384)    1152        Mixed_7a_Branch_0_Conv2d_1a_3x3[0\n","__________________________________________________________________________________________________\n","Mixed_7a_Branch_1_Conv2d_1a_3x3 (None, 5, 5, 256)    768         Mixed_7a_Branch_1_Conv2d_1a_3x3[0\n","__________________________________________________________________________________________________\n","Mixed_7a_Branch_2_Conv2d_1a_3x3 (None, 5, 5, 256)    768         Mixed_7a_Branch_2_Conv2d_1a_3x3[0\n","__________________________________________________________________________________________________\n","Mixed_7a_Branch_0_Conv2d_1a_3x3 (None, 5, 5, 384)    0           Mixed_7a_Branch_0_Conv2d_1a_3x3_B\n","__________________________________________________________________________________________________\n","Mixed_7a_Branch_1_Conv2d_1a_3x3 (None, 5, 5, 256)    0           Mixed_7a_Branch_1_Conv2d_1a_3x3_B\n","__________________________________________________________________________________________________\n","Mixed_7a_Branch_2_Conv2d_1a_3x3 (None, 5, 5, 256)    0           Mixed_7a_Branch_2_Conv2d_1a_3x3_B\n","__________________________________________________________________________________________________\n","Mixed_7a_Branch_3_MaxPool_1a_3x (None, 5, 5, 896)    0           Block17_10_Activation[0][0]      \n","__________________________________________________________________________________________________\n","Mixed_7a (Concatenate)          (None, 5, 5, 1792)   0           Mixed_7a_Branch_0_Conv2d_1a_3x3_A\n","                                                                 Mixed_7a_Branch_1_Conv2d_1a_3x3_A\n","                                                                 Mixed_7a_Branch_2_Conv2d_1a_3x3_A\n","                                                                 Mixed_7a_Branch_3_MaxPool_1a_3x3[\n","__________________________________________________________________________________________________\n","Block8_1_Branch_1_Conv2d_0a_1x1 (None, 5, 5, 192)    344064      Mixed_7a[0][0]                   \n","__________________________________________________________________________________________________\n","Block8_1_Branch_1_Conv2d_0a_1x1 (None, 5, 5, 192)    576         Block8_1_Branch_1_Conv2d_0a_1x1[0\n","__________________________________________________________________________________________________\n","Block8_1_Branch_1_Conv2d_0a_1x1 (None, 5, 5, 192)    0           Block8_1_Branch_1_Conv2d_0a_1x1_B\n","__________________________________________________________________________________________________\n","Block8_1_Branch_1_Conv2d_0b_1x3 (None, 5, 5, 192)    110592      Block8_1_Branch_1_Conv2d_0a_1x1_A\n","__________________________________________________________________________________________________\n","Block8_1_Branch_1_Conv2d_0b_1x3 (None, 5, 5, 192)    576         Block8_1_Branch_1_Conv2d_0b_1x3[0\n","__________________________________________________________________________________________________\n","Block8_1_Branch_1_Conv2d_0b_1x3 (None, 5, 5, 192)    0           Block8_1_Branch_1_Conv2d_0b_1x3_B\n","__________________________________________________________________________________________________\n","Block8_1_Branch_0_Conv2d_1x1 (C (None, 5, 5, 192)    344064      Mixed_7a[0][0]                   \n","__________________________________________________________________________________________________\n","Block8_1_Branch_1_Conv2d_0c_3x1 (None, 5, 5, 192)    110592      Block8_1_Branch_1_Conv2d_0b_1x3_A\n","__________________________________________________________________________________________________\n","Block8_1_Branch_0_Conv2d_1x1_Ba (None, 5, 5, 192)    576         Block8_1_Branch_0_Conv2d_1x1[0][0\n","__________________________________________________________________________________________________\n","Block8_1_Branch_1_Conv2d_0c_3x1 (None, 5, 5, 192)    576         Block8_1_Branch_1_Conv2d_0c_3x1[0\n","__________________________________________________________________________________________________\n","Block8_1_Branch_0_Conv2d_1x1_Ac (None, 5, 5, 192)    0           Block8_1_Branch_0_Conv2d_1x1_Batc\n","__________________________________________________________________________________________________\n","Block8_1_Branch_1_Conv2d_0c_3x1 (None, 5, 5, 192)    0           Block8_1_Branch_1_Conv2d_0c_3x1_B\n","__________________________________________________________________________________________________\n","Block8_1_Concatenate (Concatena (None, 5, 5, 384)    0           Block8_1_Branch_0_Conv2d_1x1_Acti\n","                                                                 Block8_1_Branch_1_Conv2d_0c_3x1_A\n","__________________________________________________________________________________________________\n","Block8_1_Conv2d_1x1 (Conv2D)    (None, 5, 5, 1792)   689920      Block8_1_Concatenate[0][0]       \n","__________________________________________________________________________________________________\n","lambda_15 (Lambda)              (None, 5, 5, 1792)   0           Block8_1_Conv2d_1x1[0][0]        \n","__________________________________________________________________________________________________\n","add_15 (Add)                    (None, 5, 5, 1792)   0           Mixed_7a[0][0]                   \n","                                                                 lambda_15[0][0]                  \n","__________________________________________________________________________________________________\n","Block8_1_Activation (Activation (None, 5, 5, 1792)   0           add_15[0][0]                     \n","__________________________________________________________________________________________________\n","Block8_2_Branch_1_Conv2d_0a_1x1 (None, 5, 5, 192)    344064      Block8_1_Activation[0][0]        \n","__________________________________________________________________________________________________\n","Block8_2_Branch_1_Conv2d_0a_1x1 (None, 5, 5, 192)    576         Block8_2_Branch_1_Conv2d_0a_1x1[0\n","__________________________________________________________________________________________________\n","Block8_2_Branch_1_Conv2d_0a_1x1 (None, 5, 5, 192)    0           Block8_2_Branch_1_Conv2d_0a_1x1_B\n","__________________________________________________________________________________________________\n","Block8_2_Branch_1_Conv2d_0b_1x3 (None, 5, 5, 192)    110592      Block8_2_Branch_1_Conv2d_0a_1x1_A\n","__________________________________________________________________________________________________\n","Block8_2_Branch_1_Conv2d_0b_1x3 (None, 5, 5, 192)    576         Block8_2_Branch_1_Conv2d_0b_1x3[0\n","__________________________________________________________________________________________________\n","Block8_2_Branch_1_Conv2d_0b_1x3 (None, 5, 5, 192)    0           Block8_2_Branch_1_Conv2d_0b_1x3_B\n","__________________________________________________________________________________________________\n","Block8_2_Branch_0_Conv2d_1x1 (C (None, 5, 5, 192)    344064      Block8_1_Activation[0][0]        \n","__________________________________________________________________________________________________\n","Block8_2_Branch_1_Conv2d_0c_3x1 (None, 5, 5, 192)    110592      Block8_2_Branch_1_Conv2d_0b_1x3_A\n","__________________________________________________________________________________________________\n","Block8_2_Branch_0_Conv2d_1x1_Ba (None, 5, 5, 192)    576         Block8_2_Branch_0_Conv2d_1x1[0][0\n","__________________________________________________________________________________________________\n","Block8_2_Branch_1_Conv2d_0c_3x1 (None, 5, 5, 192)    576         Block8_2_Branch_1_Conv2d_0c_3x1[0\n","__________________________________________________________________________________________________\n","Block8_2_Branch_0_Conv2d_1x1_Ac (None, 5, 5, 192)    0           Block8_2_Branch_0_Conv2d_1x1_Batc\n","__________________________________________________________________________________________________\n","Block8_2_Branch_1_Conv2d_0c_3x1 (None, 5, 5, 192)    0           Block8_2_Branch_1_Conv2d_0c_3x1_B\n","__________________________________________________________________________________________________\n","Block8_2_Concatenate (Concatena (None, 5, 5, 384)    0           Block8_2_Branch_0_Conv2d_1x1_Acti\n","                                                                 Block8_2_Branch_1_Conv2d_0c_3x1_A\n","__________________________________________________________________________________________________\n","Block8_2_Conv2d_1x1 (Conv2D)    (None, 5, 5, 1792)   689920      Block8_2_Concatenate[0][0]       \n","__________________________________________________________________________________________________\n","lambda_16 (Lambda)              (None, 5, 5, 1792)   0           Block8_2_Conv2d_1x1[0][0]        \n","__________________________________________________________________________________________________\n","add_16 (Add)                    (None, 5, 5, 1792)   0           Block8_1_Activation[0][0]        \n","                                                                 lambda_16[0][0]                  \n","__________________________________________________________________________________________________\n","Block8_2_Activation (Activation (None, 5, 5, 1792)   0           add_16[0][0]                     \n","__________________________________________________________________________________________________\n","Block8_3_Branch_1_Conv2d_0a_1x1 (None, 5, 5, 192)    344064      Block8_2_Activation[0][0]        \n","__________________________________________________________________________________________________\n","Block8_3_Branch_1_Conv2d_0a_1x1 (None, 5, 5, 192)    576         Block8_3_Branch_1_Conv2d_0a_1x1[0\n","__________________________________________________________________________________________________\n","Block8_3_Branch_1_Conv2d_0a_1x1 (None, 5, 5, 192)    0           Block8_3_Branch_1_Conv2d_0a_1x1_B\n","__________________________________________________________________________________________________\n","Block8_3_Branch_1_Conv2d_0b_1x3 (None, 5, 5, 192)    110592      Block8_3_Branch_1_Conv2d_0a_1x1_A\n","__________________________________________________________________________________________________\n","Block8_3_Branch_1_Conv2d_0b_1x3 (None, 5, 5, 192)    576         Block8_3_Branch_1_Conv2d_0b_1x3[0\n","__________________________________________________________________________________________________\n","Block8_3_Branch_1_Conv2d_0b_1x3 (None, 5, 5, 192)    0           Block8_3_Branch_1_Conv2d_0b_1x3_B\n","__________________________________________________________________________________________________\n","Block8_3_Branch_0_Conv2d_1x1 (C (None, 5, 5, 192)    344064      Block8_2_Activation[0][0]        \n","__________________________________________________________________________________________________\n","Block8_3_Branch_1_Conv2d_0c_3x1 (None, 5, 5, 192)    110592      Block8_3_Branch_1_Conv2d_0b_1x3_A\n","__________________________________________________________________________________________________\n","Block8_3_Branch_0_Conv2d_1x1_Ba (None, 5, 5, 192)    576         Block8_3_Branch_0_Conv2d_1x1[0][0\n","__________________________________________________________________________________________________\n","Block8_3_Branch_1_Conv2d_0c_3x1 (None, 5, 5, 192)    576         Block8_3_Branch_1_Conv2d_0c_3x1[0\n","__________________________________________________________________________________________________\n","Block8_3_Branch_0_Conv2d_1x1_Ac (None, 5, 5, 192)    0           Block8_3_Branch_0_Conv2d_1x1_Batc\n","__________________________________________________________________________________________________\n","Block8_3_Branch_1_Conv2d_0c_3x1 (None, 5, 5, 192)    0           Block8_3_Branch_1_Conv2d_0c_3x1_B\n","__________________________________________________________________________________________________\n","Block8_3_Concatenate (Concatena (None, 5, 5, 384)    0           Block8_3_Branch_0_Conv2d_1x1_Acti\n","                                                                 Block8_3_Branch_1_Conv2d_0c_3x1_A\n","__________________________________________________________________________________________________\n","Block8_3_Conv2d_1x1 (Conv2D)    (None, 5, 5, 1792)   689920      Block8_3_Concatenate[0][0]       \n","__________________________________________________________________________________________________\n","lambda_17 (Lambda)              (None, 5, 5, 1792)   0           Block8_3_Conv2d_1x1[0][0]        \n","__________________________________________________________________________________________________\n","add_17 (Add)                    (None, 5, 5, 1792)   0           Block8_2_Activation[0][0]        \n","                                                                 lambda_17[0][0]                  \n","__________________________________________________________________________________________________\n","Block8_3_Activation (Activation (None, 5, 5, 1792)   0           add_17[0][0]                     \n","__________________________________________________________________________________________________\n","Block8_4_Branch_1_Conv2d_0a_1x1 (None, 5, 5, 192)    344064      Block8_3_Activation[0][0]        \n","__________________________________________________________________________________________________\n","Block8_4_Branch_1_Conv2d_0a_1x1 (None, 5, 5, 192)    576         Block8_4_Branch_1_Conv2d_0a_1x1[0\n","__________________________________________________________________________________________________\n","Block8_4_Branch_1_Conv2d_0a_1x1 (None, 5, 5, 192)    0           Block8_4_Branch_1_Conv2d_0a_1x1_B\n","__________________________________________________________________________________________________\n","Block8_4_Branch_1_Conv2d_0b_1x3 (None, 5, 5, 192)    110592      Block8_4_Branch_1_Conv2d_0a_1x1_A\n","__________________________________________________________________________________________________\n","Block8_4_Branch_1_Conv2d_0b_1x3 (None, 5, 5, 192)    576         Block8_4_Branch_1_Conv2d_0b_1x3[0\n","__________________________________________________________________________________________________\n","Block8_4_Branch_1_Conv2d_0b_1x3 (None, 5, 5, 192)    0           Block8_4_Branch_1_Conv2d_0b_1x3_B\n","__________________________________________________________________________________________________\n","Block8_4_Branch_0_Conv2d_1x1 (C (None, 5, 5, 192)    344064      Block8_3_Activation[0][0]        \n","__________________________________________________________________________________________________\n","Block8_4_Branch_1_Conv2d_0c_3x1 (None, 5, 5, 192)    110592      Block8_4_Branch_1_Conv2d_0b_1x3_A\n","__________________________________________________________________________________________________\n","Block8_4_Branch_0_Conv2d_1x1_Ba (None, 5, 5, 192)    576         Block8_4_Branch_0_Conv2d_1x1[0][0\n","__________________________________________________________________________________________________\n","Block8_4_Branch_1_Conv2d_0c_3x1 (None, 5, 5, 192)    576         Block8_4_Branch_1_Conv2d_0c_3x1[0\n","__________________________________________________________________________________________________\n","Block8_4_Branch_0_Conv2d_1x1_Ac (None, 5, 5, 192)    0           Block8_4_Branch_0_Conv2d_1x1_Batc\n","__________________________________________________________________________________________________\n","Block8_4_Branch_1_Conv2d_0c_3x1 (None, 5, 5, 192)    0           Block8_4_Branch_1_Conv2d_0c_3x1_B\n","__________________________________________________________________________________________________\n","Block8_4_Concatenate (Concatena (None, 5, 5, 384)    0           Block8_4_Branch_0_Conv2d_1x1_Acti\n","                                                                 Block8_4_Branch_1_Conv2d_0c_3x1_A\n","__________________________________________________________________________________________________\n","Block8_4_Conv2d_1x1 (Conv2D)    (None, 5, 5, 1792)   689920      Block8_4_Concatenate[0][0]       \n","__________________________________________________________________________________________________\n","lambda_18 (Lambda)              (None, 5, 5, 1792)   0           Block8_4_Conv2d_1x1[0][0]        \n","__________________________________________________________________________________________________\n","add_18 (Add)                    (None, 5, 5, 1792)   0           Block8_3_Activation[0][0]        \n","                                                                 lambda_18[0][0]                  \n","__________________________________________________________________________________________________\n","Block8_4_Activation (Activation (None, 5, 5, 1792)   0           add_18[0][0]                     \n","__________________________________________________________________________________________________\n","Block8_5_Branch_1_Conv2d_0a_1x1 (None, 5, 5, 192)    344064      Block8_4_Activation[0][0]        \n","__________________________________________________________________________________________________\n","Block8_5_Branch_1_Conv2d_0a_1x1 (None, 5, 5, 192)    576         Block8_5_Branch_1_Conv2d_0a_1x1[0\n","__________________________________________________________________________________________________\n","Block8_5_Branch_1_Conv2d_0a_1x1 (None, 5, 5, 192)    0           Block8_5_Branch_1_Conv2d_0a_1x1_B\n","__________________________________________________________________________________________________\n","Block8_5_Branch_1_Conv2d_0b_1x3 (None, 5, 5, 192)    110592      Block8_5_Branch_1_Conv2d_0a_1x1_A\n","__________________________________________________________________________________________________\n","Block8_5_Branch_1_Conv2d_0b_1x3 (None, 5, 5, 192)    576         Block8_5_Branch_1_Conv2d_0b_1x3[0\n","__________________________________________________________________________________________________\n","Block8_5_Branch_1_Conv2d_0b_1x3 (None, 5, 5, 192)    0           Block8_5_Branch_1_Conv2d_0b_1x3_B\n","__________________________________________________________________________________________________\n","Block8_5_Branch_0_Conv2d_1x1 (C (None, 5, 5, 192)    344064      Block8_4_Activation[0][0]        \n","__________________________________________________________________________________________________\n","Block8_5_Branch_1_Conv2d_0c_3x1 (None, 5, 5, 192)    110592      Block8_5_Branch_1_Conv2d_0b_1x3_A\n","__________________________________________________________________________________________________\n","Block8_5_Branch_0_Conv2d_1x1_Ba (None, 5, 5, 192)    576         Block8_5_Branch_0_Conv2d_1x1[0][0\n","__________________________________________________________________________________________________\n","Block8_5_Branch_1_Conv2d_0c_3x1 (None, 5, 5, 192)    576         Block8_5_Branch_1_Conv2d_0c_3x1[0\n","__________________________________________________________________________________________________\n","Block8_5_Branch_0_Conv2d_1x1_Ac (None, 5, 5, 192)    0           Block8_5_Branch_0_Conv2d_1x1_Batc\n","__________________________________________________________________________________________________\n","Block8_5_Branch_1_Conv2d_0c_3x1 (None, 5, 5, 192)    0           Block8_5_Branch_1_Conv2d_0c_3x1_B\n","__________________________________________________________________________________________________\n","Block8_5_Concatenate (Concatena (None, 5, 5, 384)    0           Block8_5_Branch_0_Conv2d_1x1_Acti\n","                                                                 Block8_5_Branch_1_Conv2d_0c_3x1_A\n","__________________________________________________________________________________________________\n","Block8_5_Conv2d_1x1 (Conv2D)    (None, 5, 5, 1792)   689920      Block8_5_Concatenate[0][0]       \n","__________________________________________________________________________________________________\n","lambda_19 (Lambda)              (None, 5, 5, 1792)   0           Block8_5_Conv2d_1x1[0][0]        \n","__________________________________________________________________________________________________\n","add_19 (Add)                    (None, 5, 5, 1792)   0           Block8_4_Activation[0][0]        \n","                                                                 lambda_19[0][0]                  \n","__________________________________________________________________________________________________\n","Block8_5_Activation (Activation (None, 5, 5, 1792)   0           add_19[0][0]                     \n","__________________________________________________________________________________________________\n","Block8_6_Branch_1_Conv2d_0a_1x1 (None, 5, 5, 192)    344064      Block8_5_Activation[0][0]        \n","__________________________________________________________________________________________________\n","Block8_6_Branch_1_Conv2d_0a_1x1 (None, 5, 5, 192)    576         Block8_6_Branch_1_Conv2d_0a_1x1[0\n","__________________________________________________________________________________________________\n","Block8_6_Branch_1_Conv2d_0a_1x1 (None, 5, 5, 192)    0           Block8_6_Branch_1_Conv2d_0a_1x1_B\n","__________________________________________________________________________________________________\n","Block8_6_Branch_1_Conv2d_0b_1x3 (None, 5, 5, 192)    110592      Block8_6_Branch_1_Conv2d_0a_1x1_A\n","__________________________________________________________________________________________________\n","Block8_6_Branch_1_Conv2d_0b_1x3 (None, 5, 5, 192)    576         Block8_6_Branch_1_Conv2d_0b_1x3[0\n","__________________________________________________________________________________________________\n","Block8_6_Branch_1_Conv2d_0b_1x3 (None, 5, 5, 192)    0           Block8_6_Branch_1_Conv2d_0b_1x3_B\n","__________________________________________________________________________________________________\n","Block8_6_Branch_0_Conv2d_1x1 (C (None, 5, 5, 192)    344064      Block8_5_Activation[0][0]        \n","__________________________________________________________________________________________________\n","Block8_6_Branch_1_Conv2d_0c_3x1 (None, 5, 5, 192)    110592      Block8_6_Branch_1_Conv2d_0b_1x3_A\n","__________________________________________________________________________________________________\n","Block8_6_Branch_0_Conv2d_1x1_Ba (None, 5, 5, 192)    576         Block8_6_Branch_0_Conv2d_1x1[0][0\n","__________________________________________________________________________________________________\n","Block8_6_Branch_1_Conv2d_0c_3x1 (None, 5, 5, 192)    576         Block8_6_Branch_1_Conv2d_0c_3x1[0\n","__________________________________________________________________________________________________\n","Block8_6_Branch_0_Conv2d_1x1_Ac (None, 5, 5, 192)    0           Block8_6_Branch_0_Conv2d_1x1_Batc\n","__________________________________________________________________________________________________\n","Block8_6_Branch_1_Conv2d_0c_3x1 (None, 5, 5, 192)    0           Block8_6_Branch_1_Conv2d_0c_3x1_B\n","__________________________________________________________________________________________________\n","Block8_6_Concatenate (Concatena (None, 5, 5, 384)    0           Block8_6_Branch_0_Conv2d_1x1_Acti\n","                                                                 Block8_6_Branch_1_Conv2d_0c_3x1_A\n","__________________________________________________________________________________________________\n","Block8_6_Conv2d_1x1 (Conv2D)    (None, 5, 5, 1792)   689920      Block8_6_Concatenate[0][0]       \n","__________________________________________________________________________________________________\n","lambda_20 (Lambda)              (None, 5, 5, 1792)   0           Block8_6_Conv2d_1x1[0][0]        \n","__________________________________________________________________________________________________\n","add_20 (Add)                    (None, 5, 5, 1792)   0           Block8_5_Activation[0][0]        \n","                                                                 lambda_20[0][0]                  \n","__________________________________________________________________________________________________\n","global_average_pooling2d (Globa (None, 1792)         0           add_20[0][0]                     \n","__________________________________________________________________________________________________\n","batch_normalization (BatchNorma (None, 1792)         7168        global_average_pooling2d[0][0]   \n","__________________________________________________________________________________________________\n","dropout (Dropout)               (None, 1792)         0           batch_normalization[0][0]        \n","__________________________________________________________________________________________________\n","dense (Dense)                   (None, 1024)         1836032     dropout[0][0]                    \n","__________________________________________________________________________________________________\n","batch_normalization_1 (BatchNor (None, 1024)         4096        dense[0][0]                      \n","__________________________________________________________________________________________________\n","dropout_1 (Dropout)             (None, 1024)         0           batch_normalization_1[0][0]      \n","__________________________________________________________________________________________________\n","dense_1 (Dense)                 (None, 4)            4100        dropout_1[0][0]                  \n","==================================================================================================\n","Total params: 24,429,780\n","Trainable params: 1,845,764\n","Non-trainable params: 22,584,016\n","__________________________________________________________________________________________________\n"],"name":"stdout"}]},{"cell_type":"code","metadata":
…
